mnist/evaluation_resources/C_sm_nh_75_state_dict.pt (torch_old, 685154 bytes, 19 tensors)

conv1.g f4 [1, 800]
0.012071748 0.07013088 0.031738732 -0.3155612 -0.07149956 -0.11361439 0.40072906 0.24154691
0.09311852 -0.031788353 0.14996773 -0.34234667 -0.089782886 -0.07360797 -0.35495216 0.086309
0.07253064 -0.26706922 -0.20818041 -0.10031332 -0.11747658 -0.14590251 0.19986877 -0.29811385
0.26205304 -0.09497447 -0.34648344 0.07220832 0.13723068 -0.32951802 -0.105176166 -0.011998912
-1.4981e-41 -5.8503e-41 -2.906e-42 1.2373e-41 5.7759e-41 -4.802e-42 -8.1326e-41 -8.1415e-41
9.218e-42 -2.454e-42 5.339e-42 7.152e-42 -1.0957e-41 1.923e-42 3.334e-42 -6.59e-43
-2.9502e-41 2.6982e-41 2.833e-41 2.7652e-41 6.8975e-41 2.986e-42 -6.7065e-41 -3.002e-42
-9.023e-42 -8.1202e-41 -2.91e-42 -6.6637e-41 1.1615e-41 7.2409e-41 2.7727e-41 8.876e-42
2.815e-42 -3.547e-42 1.5654e-41 -3.182e-42 -5.8765e-41 8.516e-42 -8.863e-42 -3.474e-42
-1.16e-41 6.6786e-41 5.8493e-41 8.308e-42 -1.4824e-41 -5.8524e-41 5.784e-41 -3.531e-42
-3.081e-42 -6.7107e-41 1.1366e-41 6.6525e-41 1.1264e-41 6.7398e-41 9.024e-42 -6.6943e-41
-1.5695e-41 -1.4907e-41 1.2267e-41 -3.635e-42 -2.7579e-41 1.5105e-41 1.244e-42 6.7077e-41
-0.04724946 0.17478171 0.033062305 -0.37250215 0.18900937 -0.13314234 0.24651067 0.27201658
0.25251067 -0.041527253 0.24125957 -0.28428707 -0.24252956 -0.22674973 -0.28883415 0.03736784
0.023490349 -0.2513646 -0.2728573 0.049499672 -0.13318342 -0.17699257 0.13981248 -0.006859404
0.111467175 0.0399758 -0.14965643 -0.12291785 -0.038109206 -0.31912917 -0.07370306 -0.2598011
-0.5422547 0.15765263 -0.040610034 0.15440395 -0.092676565 -0.260246 -0.47181615 0.21270017
-0.48307723 0.43686345 -0.47940832 0.032961182 -0.23327553 0.35292682 -0.3020284 0.09096093
0.38318402 0.14751966 0.36269924 -0.44908965 -0.109239586 0.0967461 -0.01507956 0.08600362
0.26811945 0.10958919 0.018549876 0.19004925 -0.16366969 0.58870083 0.06306989 0.33082005
8.881e-42 -3.236e-42 5.4143e-41 -1.1226e-41 -2.9967e-41 3.049e-42 -1.2089e-41 -5.273e-42
-8.1338e-41 3.0023e-41 -1.2463e-41 -3.38e-42 1.1395e-41 -1.806e-42 9.81e-43 1.038e-41
6.53e-42 6.6695e-41 -2.882e-42 7.193e-42 3.018e-42 -7.961e-42 1.5578e-41 1.143e-41
-2.978e-42 -1.1058e-41 -6.8958e-41 3.06e-42 -1.1153e-41 6.8931e-41 6.6842e-41 7.2468e-41
0.22194971 -0.32575592 -0.008265799 0.04155753 -0.023842199 0.11320177 -0.02273293 0.000586066
-0.22041786 -0.27043352 0.06554086 0.12053502 -0.15441632 0.40026802 -0.24385415 -0.07775673
0.19717433 0.2637662 -0.15190355 0.099375024 0.14599918 0.24168858 0.2872597 0.13753092
0.2572232 -0.18040793 -0.14417854 0.21631293 0.3188747 -0.3535733 -0.23669344 0.06551838
-0.40247008 0.3229465 0.025713045 -0.3747874 0.032910634 -0.19797283 0.2671288 -0.12668103
0.48994374 -0.08925778 -0.19649175 -0.11196825 -0.21002918 -0.3540892 -0.091123365 0.044895504
-0.34534603 0.046922266 -0.35649708 -0.024211809 0.055182144 -0.14334616 -0.4121669 -0.34970722
0.10828674 0.12627627 0.13194905 0.023615802 -0.5344579 -0.21516104 -0.32158044 -0.46673033
00000000: 95c8 453c c7a0 8f3d 7900 023d 3d91 a1be
00000010: 5c6e 92bd a9ae e8bd 5c2c cd3e 1358 773e
00000020: ecb4 be3d 8134 02bd 2491 193e 1048 afbe
00000030: 17e0 b7bd c6bf 96bd 4abc b5be c6c2 b03d
00000040: f28a 943d 4cbd 88be 3f2d 55be 1271 cdbd
00000050: 9097 f0bd 7867 15be 66aa 4c3e 61a2 98be
00000060: d12b 863e fa81 c2bd 4766 b1be f5e1 933d
00000070: 3386 0c3e 96b6 a8be 9a66 d7bd 1697 44bc
00000080: c329 0080 15a3 0080 1a08 0080 7e22 0000
00000090: 02a1 0000 630d 0080 b4e2 0080 f4e2 0080
000000a0: b219 0000 d706 0080 e20e 0000 f013 0000
000000b0: 8b1e 0080 5c05 0000 4b09 0000 d601 0080
000000c0: 3d52 0080 374b 0000 f94e 0000 154d 0000
000000d0: 46c0 0000 5308 0000 f3ba 0080 5e08 0080
000000e0: 2719 0080 5ce2 0080 1d08 0080 c2b9 0080
000000f0: 6120 0000 d9c9 0000 4b4d 0000 be18 0000
00000100: d907 0000 e309 0080 a32b 0000 df08 0080
00000110: d0a3 0080 bd17 0000 b518 0080 af09 0080
00000120: 5620 0080 2cba 0000 0ea3 0000 2917 0000
00000130: 5329 0080 24a3 0080 3ca1 0000 d809 0080
00000140: 9708 0080 11bb 0080 af1f 0000 72b9 0000
00000150: 661f 0000 e1bb 0000 2819 0000 9cba 0080
00000160: c02b 0080 8e29 0080 3222 0000 220a 0080
00000170: e14c 0080 1b2a 0000 7803 0000 fcba 0000
00000180: a688 41bd faf9 323e 576c 073d 9ab8 bebe
00000190: ac8b 413e 7756 08be 4b6d 7c3e c245 8b3e
000001a0: 1449 813e 7b18 2abd c00c 773e 138e 91be
000001b0: ab59 78be 1531 68be 12e2 93be 050f 193d
000001c0: d56e c03c dcb2 80be f4b3 8bbe 2bc0 4a3d
000001d0: 3c61 08be 8a3d 35be 012b 0f3e dac4 e0bb
000001e0: e748 e43d aabd 233d 893f 19be 5bbc fbbd
000001f0: 6618 1cbd e664 a3be a1f1 96bd a604 85be
00000200: 34d1 0abf b16f 213e b556 26bd 121c 1e3e
00000210: 36cd bdbd f73e 85be e391 f1be 13ce 593e
00000220: e655 f7be 91ac df3e 0275 f5be 4e02 073d
00000230: c8df 6ebe d3b2 b43e 77a3 9abe b949 ba3d
00000240: b230 c43e 650f 173e b7b3 b93e 14ef e5be
00000250: 01b9 dfbd d222 c63d 4210 77bc aa22 b03d
00000260: f446 893e 4c70 e03d e9f5 973c 459c 423e
00000270: 0799 27be 19b5 163f c92a 813d 3f61 a93e
00000280: c218 0000 0509 0080 ee96 0000 4b1f 0080
00000290: 8953 0080 8008 0000 b321 0080 b30e 0080
000002a0: bde2 0080 b153 0000 be22 0080 6c09 0080
000002b0: c41f 0000 0905 0080 bc02 0000 ef1c 0000
000002c0: 3412 0000 ebb9 0000 0908 0080 0d14 0000
000002d0: 6a08 0000 3116 0080 6d2b 0000 dd1f 0000
000002e0: 4d08 0080 d31e 0080 3ac0 0080 8808 0000
000002f0: 171f 0080 27c0 0000 54ba 0000 03ca 0000
00000300: c946 633e 7bc9 a6be 466d 07bc 3b38 2a3d
00000310: b750 c3bc 54d6 e73d 693a babc 39a2 193a
00000320: 38b5 61be 4376 8abe 493a 863d 11db f63d
00000330: 501f 1ebe eeef cc3e e7b4 79be ec3e 9fbd
00000340: 11e8 493e 5d0c 873e 9b8c 1bbe 2285 cb3d
00000350: cf80 153e 367d 773e b413 933e e8d4 0c3e
00000360: c2b2 833e dbbc 38be 8aa3 13be 2381 5d3e
00000370: 8b43 a33e 8f07 b5be c45f 72be 802e 863d
00000380: 8f10 cebe 3e59 a53e 2aa4 d23c 22e4 bfbe
00000390: 4dcd 063d 64b9 4abe 1bc5 883e acb8 01be
000003a0: e8d9 fa3e c8cc b6bd 2235 49be 9c4f e5bd
000003b0: e411 57be 2e4b b5be e39e babd 59e4 373d
000003c0: 32d1 b0be 9031 403d c986 b6be d857 c6bc
000003d0: ac06 623d 56c9 12be 8a07 d3be d30c b3be
000003e0: 70c5 dd3d 914e 013e a71d 073e ed75 c13c
000003f0: 3cd2 08bf 2d53 5cbe 31a6 a4be 47f7 eebe

conv1.mu f4 [25, 2]
-0.12142327 0.41048646 -3.599e-42 -3.676e-42 -5.335e-42 -6.7293e-41 0.105420105 0.115024514
0.7004455 0.29119858 5.3126e-41 7.448e-42 0.26224524 0.72229093 0.3468222 0.35838494
6.4666e-41 1.2394e-41 0.39203647 0.32309034 0.13910384 0.05112048 0.5485144 0.50167793
-2.9897e-41 -2.6493e-41 5.8658e-41 -1.393e-42 0.01806487 0.41426522 0.37051845 0.6240776
0.5857848 0.3163461 0.17062065 -0.052216977 -8.2018e-41 -1.1105e-41 0.5085181 0.49961197
0.5113984 0.51975155 0.20908353 0.32742065 0.3412307 -0.11344554 0.4629697 0.0753719
8.59e-42 -5.4044e-41
00000000: c3ac f8bd 482b d23e 080a 0080 3f0a 0080
00000010: df0e 0080 96bb 0080 7fe6 d73d f991 eb3d
00000020: 6550 333f fb17 953e 1894 0000 c314 0000
00000030: 0245 863e 0fe8 383f ae92 b13e 3b7e b73e
00000040: 43b4 0000 8d22 0000 01b9 c83e 196c a53e
00000050: 3d71 0e3e b563 513d 716b 0c3f f76d 003f
00000060: 5753 0080 da49 0080 84a3 0000 e203 0080
00000070: c7fc 933c 921a d43e 98b4 bd3e 8dc3 1f3f
00000080: fef5 153f 1ef8 a13e 2eb7 2e3e 78e1 55bd
00000090: a2e4 0080 f51e 0080 3e2e 023f 24cd ff3e
000000a0: 01eb 023f 700e 053f fe19 563e aea3 a73e
000000b0: cab5 ae3e 2356 e8bd 5d0a ed3e 955c 9a3d
000000c0: f217 0000 a796 0080

conv1.sigma f4 [25, 2]
0.34454653 -0.23600462 -5.8632e-41 5.4037e-41 5.8566e-41 3.166e-42 0.2649028 0.30196273
0.27495047 -0.09002256 1.4948e-41 -1.3913e-41 -0.1692809 0.21453685 0.10154769 0.08155584
3.49e-42 -1.3946e-41 -0.073779196 0.10472732 0.36814538 -0.23776242 -0.2943291 -0.07140127
8.207e-41 -5.3245e-41 1.1156e-41 8.832e-42 -0.22681533 0.22521867 -0.11765642 0.5472912
0.3566895 0.07294354 -0.5406849 0.26698193 -2.824e-42 -3.414e-42 0.05747266 -0.18673335
-0.054740265 0.20956016 0.182842 0.0896231 0.26315087 0.31038013 0.28555912 -0.12341571
-1.4894e-41 -6.6777e-41
00000000: 6768 b03e 32ab 71be 71a3 0080 a296 0000
00000010: 42a3 0000 d308 0000 57a1 873e dc9a 9a3e
00000020: 4fc6 8c3e bf5d b8bd ab29 0000 c926 0080
00000030: f957 2dbe 8caf 5b3e 3cf8 cf3d c006 a73d
00000040: bb09 0000 e026 0080 8c19 97bd 477b d63d
00000050: 8d7d bc3e fe77 73be 4eb2 96be d43a 92bd
00000060: c7e4 0000 6d94 0080 191f 0000 9f18 0000
00000070: 4742 68be b99f 663e d9f5 f0bd 471b 0c3f
00000080: 02a0 b63e 6c63 953d 536a 0abf dbb1 883e
00000090: df07 0080 8409 0080 7468 6b3d 0737 3fbe
000000a0: 5437 60bd f096 563e ef3a 3b3e 518c b73d
000000b0: b6bb 863e 25ea 9e3e ce34 923e 60c1 fcbd
000000c0: 8529 0080 26ba 0080

conv1.root f4 [1, 32]
0.25338012 0.025029352 -0.30985063 0.35793918 -0.19053324 0.14019078 0.00979931 -0.115950175
-0.3400114 -0.27325192 -0.11364661 0.27256283 0.12716016 -0.20686601 0.2908266 -0.08161945
-0.0874873 -0.04362002 0.27301842 0.020258797 -0.18258029 -0.07391651 -0.33410993 0.0121997055
-0.37972346 -0.0425042 0.19550453 0.33440742 -0.054124277 0.1742555 0.15286653 0.010032135
00000000: 0abb 813e 5b0a cd3c bea4 9ebe ce43 b73e
00000010: 251b 43be 2c8e 0f3e 498d 203c 4977 edbd
00000020: f915 aebe ade7 8bbe 8ebf e8bd 5b8d 8b3e
00000030: 4636 023e afd4 53be 39e7 943e 1928 a7bd
00000040: 8b2c b3bd e8aa 32bd 12c9 8b3e c7f5 a53c
00000050: 54f6 3abe 8a61 97bd 7510 abbe 46e1 473c
00000060: 1d6b c2be e218 2ebd 5732 483e 7337 ab3e
00000070: 6bb1 5dbd 0970 323e 0b89 1c3e d35d 243c

conv1.bias f4 [32]
-0.055417154 -0.05719997 0.13198362 0.02880514 0.01920581 0.014986115 -0.097986065 -0.037029874
-0.052400924 0.113405176 -0.11154239 -0.031073708 0.15365341 0.060993586 -0.020383742 -0.03993267
0.026401348 0.06357558 -0.117087364 0.015471315 0.030663455 0.04396204 0.082800396 -0.046515655
-0.02893401 -0.11542332 -0.03470167 -0.033321813 -0.011186855 0.056547478 0.09456809 0.014086512
00000000: 19fd 62bd 844a 6abd b726 073e c2f8 eb3c
00000010: 8155 9d3c 5288 753c ebac c8bd a3ac 17bd
00000020: 5aa2 56bd f940 e83d 5670 e4bd 4a8e febc
00000030: 5257 1d3e 69d4 793d cefb a6bc 7090 23bd
00000040: a447 d83c ea33 823d 80cb efbd 667b 7d3c
00000050: ed31 fb3c 8a11 343d 4193 a93d 3387 3ebd
00000060: 0407 edbc 1063 ecbd 5723 0ebd 747c 08bd
00000070: 1249 37bc 549e 673d eaac c13d 1dcb 663c

conv2.g f4 [32, 1600]
-0.07650576 -0.0023980916 0.06548093 -0.08010057 -0.17603092 -0.04803463 0.030341664 0.06349267
-0.011522756 0.021080771 -0.0085729305 0.022492109 0.0008254334 -0.012620927 0.0042663696 -0.121696725
-0.0037791166 -0.026764609 0.006734894 0.000113693066 -0.054333426 0.11228301 0.0006022284 -0.13926704
0.010399059 0.024926808 0.0022992115 -0.08095501 -0.00011992881 0.00094675185 0.022325661 0.040563416
-0.03581163 0.03831642 -0.085824594 0.0056431615 -0.025384316 -0.015891286 -0.049776774 -0.026108503
0.0007549827 0.005892661 -0.061238237 -0.034365166 0.022064965 0.038320657 0.038348854 -0.01935084
-0.019955479 -0.016248593 0.02620942 -0.07225591 0.013761914 -0.009993023 0.034240123 0.007214359
0.015748937 0.019945718 -0.006120265 0.023213184 0.0110175675 -0.0002364978 -0.024598574 0.03642511
-0.06172624 0.0038694458 -0.016995072 0.012038025 -0.038368016 0.014143546 0.017010296 0.0029144236
-0.012674874 0.022167917 0.041565012 0.0069011045 -0.0004140631 -0.010245679 -0.0004049601 0.0041124756
-0.00254123 0.03696044 0.028510809 0.00014526494 -0.048575163 0.005840533 -0.0012880053 -0.06566673
0.0038982409 0.004289292 0.00035177343 -0.02149461 -0.0016303929 0.022930874 -0.04299528 0.011098141
-0.0061640143 0.051248666 0.002431185 0.08823876 -0.0032937126 0.025022484 -0.025400227 0.0009874041
0.00023316348 -0.0085177375 -0.076354705 -0.008531224 0.048709065 0.005789823 0.027803939 0.04189556
-0.050644077 -0.046998598 0.009764604 0.023856767 0.00874331 -0.022611767 0.011412952 -0.026171595
-0.0068329917 -0.013677216 -0.009284801 0.0073318505 -0.00988042 -0.0023787532 -0.05627018 -0.0014863993
2.7579e-41 -8.049e-42 -4.3557e-41 3.084e-42 5.412e-42 5.8744e-41 -7.714e-42 -9.886e-42
-8.331e-42 -2.915e-42 -2.6276e-41 -5.8531e-41 -1.1034e-41 -2.7865e-41 -7.023e-42 8.1163e-41
-1.453e-41 9.277e-42 4.344e-42 5.8567e-41 2.6332e-41 1.141e-41 -1.1314e-41 8.1163e-41
-5.586e-42 -3.154e-42 1.4735e-41 -9.159e-42 -6.6773e-41 6.7608e-41 -2.6232e-41 1.5616e-41
-6.6719e-41 3.366e-42 1.159e-41 1.0193e-41 -1.5056e-41 -5.3195e-41 1.949e-42 -2.7614e-41
5.368e-41 -6.9004e-41 -1.4948e-41 2.83e-42 2.783e-42 -5.8772e-41 -5.347e-42 8.096e-41
-1.2327e-41 -5.729e-42 1.0193e-41 -6.7578e-41 -1.4896e-41 1.4868e-41 7.95e-43 5.8577e-41
5.015e-42 -3.093e-42 2.7653e-41 6.726e-41 -6.7145e-41 -2.6374e-41 -2.92e-42 -8.1495e-41
-0.017994586 -0.0136504695 -0.017236924 -0.0005180193 0.04507331 0.021557081 -0.02567845 0.0005199351
-0.0014011136 0.008358818 -0.00933644 -0.016975174 -0.0024731006 0.017534712 0.05207646 0.007094343
0.015386358 0.004444575 0.013198626 -0.00031399663 -0.014589446 -0.011574701 0.0005840464 0.0257892
0.0053949472 -0.007756628 0.0010898157 -0.017702855 0.0005816579 -0.0008915818 -0.002052444 -0.010470347
-0.020833844 0.06630481 0.006084345 -0.006332695 0.031218842 -0.018129934 0.006088142 -0.005967131
0.00017043277 -0.0030047623 -0.013769981 0.019291796 -0.065731026 0.006851095 -0.010919152 -0.01701167
0.0026884184 -0.008567612 -0.037216842 0.05062919 -0.041272826 -0.0003413218 0.02027576 -0.014548376
-0.008141444 0.0025253892 -0.017889999 -0.010945565 -0.010645727 -0.00027601438 0.019007055 0.014676006
00000000: 0daf 9cbd 4d29 1dbb de1a 863d c50b a4bd
00000010: 7341 34be f6bf 44bd 158f f83c 7208 823d
00000020: f1c9 3cbc 95b1 ac3c 7a75 0cbc 5f41 b83c
00000030: e661 583a 01c8 4ebc e7cc 8b3b 223c f9bd
00000040: 0eab 77bb 7441 dbbc 63b0 dc3b 806e ee38
00000050: ba8c 5ebd a2f4 e53d ddde 1d3a 059c 0ebe
00000060: d160 2a3c 4e33 cc3c 5eae 163b becb a5bd
00000070: 4a82 fbb8 712f 783a 4ee4 b63c d325 263d
00000080: 37af 12bd aef1 1c3d cec4 afbd 45ea b83b
00000090: c5f2 cfbc 712e 82bc bbe2 4bbd 80e1 d5bc
000000a0: 08ea 453a 3917 c13b f2d4 7abd 7dc2 0cbd
000000b0: 96c1 b43c 1ff6 1c3d b013 1d3d a785 9ebc
000000c0: ac79 a3bc c51b 85bc 23b5 d63c e8fa 93bd
000000d0: a779 613c c7b9 23bc 5f3f 0c3d 6e66 ec3b
000000e0: ea03 813c 3465 a33c 818c c8bb 9329 be3c
000000f0: 0783 343c 65fc 77b9 f382 c9bc 7f32 153d
00000100: a7d4 7cbd 8796 7d3b 4039 8bbc 233b 453c
00000110: c827 1dbd 55ba 673c 2d59 8b3c eaff 3e3b
00000120: 46aa 4fbc 7e99 b53c 1340 2a3d a922 e23b
00000130: 9c16 d9b9 7edd 27bc d350 d4b9 f2c1 863b
00000140: c48a 26bb d563 173d 808f e93c 4352 1839
00000150: c0f6 46bd f161 bf3b 49d2 a8ba 477c 86bd
00000160: a179 7f3b 308d 8c3b 3b6e b839 7715 b0bc
00000170: e8b2 d5ba 87d9 bb3c d21b 30bd fad4 353c
00000180: 80fb c9bb 1fea 513d 8454 1f3b 86b6 b43d
00000190: 54db 57bb f4fb cc3c 2314 d0bc c96b 813a
000001a0: 587d 7439 fb8d 0bbc db5f 9cbd 8cc6 0bbc
000001b0: 2883 473d 8eb8 bd3b 16c5 e33c ae9a 2b3d
000001c0: 2a70 4fbd 9a81 40bd b8fb 1f3c 446f c33c
000001d0: 1a40 0f3c 503c b9bc 64fd 3a3c d065 d6bc
000001e0: 4ae7 dfbb 6716 60bc 471f 18bc 0540 f03b
000001f0: 7ce1 21bc dbe4 1bbb 8f7b 66bd 49d3 c2ba
00000200: e14c 0000 7016 0080 6b79 0080 9908 0000
00000210: 160f 0000 c1a3 0000 8115 0080 8f1b 0080
00000220: 3917 0080 2008 0080 3f49 0080 29a3 0080
00000230: c21e 0080 ad4d 0080 9413 0080 40e2 0000
00000240: 8128 0080 dc19 0000 1c0c 0000 43a3 0000
00000250: 6749 0000 ce1f 0000 8a1f 0080 40e2 0000
00000260: 920f 0080 cb08 0080 1329 0000 8819 0080
00000270: 23ba 0080 77bc 0000 2049 0080 882b 0000
00000280: fcb9 0080 6209 0000 4f20 0000 6a1c 0000
00000290: f829 0080 4994 0080 6f05 0000 fa4c 0080
000002a0: a395 0000 5bc0 0080 ab29 0080 e407 0000
000002b0: c207 0000 d5a3 0080 e80e 0080 afe1 0000
000002c0: 5d22 0080 f80f 0080 6a1c 0000 61bc 0080
000002d0: 8629 0080 7229 0000 3702 0000 4aa3 0000
000002e0: fb0d 0000 9f08 0080 164d 0000 7ebb 0000
000002f0: 2cbb 0080 8549 0080 2408 0080 2de3 0080
00000300: 6269 93bc 38a6 5fbc 7334 8dbc b0cb 07ba
00000310: cb9e 383d 7a98 b03c 9d5b d2bc 414c 083a
00000320: 92a5 b7ba 6cf3 083c def7 18bc 850f 8bbc
00000330: be13 22bb f5a4 8f3c 204e 553d aa77 e83b
00000340: 1017 7c3c cca3 913b 0d3f 583c ea9f a4b9
00000350: 9208 6fbc d1a3 3dbc b11a 193a df43 d33c
00000360: 19c8 b03b 502b febb 26d8 8e3a 9405 91bc
00000370: 677a 183a 0bb9 69ba 4c82 06bb d18b 2bbc
00000380: bdab aabc d1ca 873d 2f5f c73b 7f82 cfbb
00000390: a8be ff3c 3a85 94bc 097f c73b ec87 c3bb
000003a0: 33b6 3239 8ceb 44bb 7d9b 61bc d409 9e3c
000003b0: fd9d 86bd 267f e03b 3ee6 32bc 0f5c 8bbc
000003c0: 2d30 303b 2b5f 0cbc b070 18bd 8e60 4f3d
000003d0: b20d 29bd 70f3 b2b9 5a19 a63c 505c 6ebc
000003e0: b163 05bc 0081 253b 0c8e 92bc 0755 33bc
000003f0: 6a6b 2ebc 06b6 90b9 afb4 9b3c a173 703c

conv2.mu f4 [25, 2]
0.49634007 0.23234631 0.14627305 0.2944269 1.2427e-41 -3.252e-42 0.20541267 -0.07316925
0.5442935 -0.14965355 -3.706e-42 1.3883e-41 0.3221787 0.37509575 0.6007734 0.09382671
0.028450666 0.5515041 9.704e-42 -2.6497e-41 0.5414741 -0.06468047 0.006817214 0.041649103
0.05731682 0.4611474 0.77414787 -0.04491174 0.06580243 0.21550567 0.5869123 0.6157819
0.34090075 0.21076985 0.3672954 0.50658786 0.8475269 0.16956756 0.30727205 0.016980939
0.66191936 0.29538438 0.26800323 0.56896615 0.00075818616 0.5073834 0.4930492 0.45174494
0.12275392 0.87845665
00000000: 4920 fe3e 31ec 6d3e 9ac8 153e 1fbf 963e
00000010: a422 0000 1109 0080 b357 523e c2d9 95bd
00000020: d256 0b3f c83e 19be 550a 0080 b326 0000
00000030: 9bf4 a43e 8d0c c03e 49cc 193f 3828 c03d
00000040: 5f11 e93c 5f2f 0d3f 0d1b 0000 dd49 0080
00000050: 0c9e 0a3f 3277 84bd f062 df3b 4098 2a3d
00000060: 0bc5 6a3d 831b ec3e 8e2e 463f 5ff5 37bd
00000070: 6dc3 863d 85ad 5c3e e23f 163f e2a3 1d3f
00000080: 8b8a ae3e 0dd4 573e 250e bc3e beaf 013f
00000090: 86f7 583f 1ea3 2d3e c352 9d3e 9c1b 8b3c
000000a0: 8c73 293f 9f3c 973e b837 893e c4a7 113f
000000b0: 03c1 463a e1e3 013f f270 fc3e 1d4b e73e
000000c0: 6866 fb3d 89e2 603f

conv2.sigma f4 [25, 2]
0.69792145 0.12254206 -0.22489218 0.16455051 -6.6702e-41 -5.3635e-41 -0.3126395 -0.16356234
0.49927226 0.11166793 -1.1482e-41 -1.5033e-41 0.21196422 0.08902991 -0.58653474 0.18726692
0.22822694 0.18396634 -2.594e-42 5.54e-43 0.49373177 -0.18863723 0.26379523 -0.19189923
0.30565292 0.1285395 -0.33129632 0.21120411 -0.2027274 -0.25611296 0.13308528 -0.23780052
0.14468059 -0.20524491 0.7180768 -0.09866736 0.18924758 0.31504706 0.2970597 0.18140005
0.13011971 -0.20462185 -0.13097455 0.24325512 -0.18621162 -0.6665258 -0.07016759 -0.41447976
0.3256014 0.28778353
00000000: fbaa 323f 55f7 fa3d 234a 66be ee7f 283e
00000010: f0b9 0080 8395 0080 4912 a0be e37c 27be
00000020: 9da0 ff3e 28b2 e43d 0220 0080 e829 0080
00000030: 260d 593e 5055 b63d 2427 16bf e6c2 3f3e
00000040: 53b4 693e ac61 3c3e 3b07 0080 8b01 0000
00000050: 69ca fc3e 1e2a 41be 2b10 873e 3b81 44be
00000060: 8a7e 9c3e dc9f 033e ac9f a9be e445 583e
00000070: c697 4fbe 3d21 83be 8247 083e fb81 73be
00000080: 2627 143e b92b 52be e2d3 373f 1d12 cabd
00000090: 1eca 413e d94d a13e 3618 983e efc0 393e
000000a0: 1a3e 053e 6488 51be 311e 06be df17 793e
000000b0: 42ae 3ebe 6fa1 2abf 07b4 8fbd b136 d4be
000000c0: 3ab5 a63e 5d58 933e

conv2.root f4 [32, 64]
-0.015665093 0.07253667 0.0026107042 -0.022821778 -0.20219134 -0.2269097 0.07697237 -0.0038901072
-0.052018445 -0.11113211 0.1240862 -0.08710496 0.026526455 -0.09184202 -0.14664398 -0.24795294
-0.030305257 0.08111856 -0.050375093 0.0039961743 -0.07040274 -0.04470554 0.008150044 -0.301462
-0.13960196 0.14005186 0.0059093996 0.12583354 0.017490814 -0.08278307 0.14497477 0.093228325
-0.11948975 0.06719141 -0.12210283 -0.06991354 -0.0161815 -0.032704048 0.06264209 0.023531709
0.0036972119 0.009934321 -0.013259342 0.030649252 0.005484142 0.13367848 0.1533219 -0.12064194
0.034436293 0.08302559 0.067682676 -0.08023541 0.1828752 -0.10732987 -0.04958807 0.1688716
0.057771858 0.116985776 -0.087497264 0.08077127 -0.012386652 0.0017865276 -0.080293074 -0.03152469
-0.13844678 -0.13967106 0.04396094 0.18211296 0.062077075 0.11604281 -0.13414168 0.16114384
0.062727965 0.16769117 -0.20105194 -0.08496621 -0.009348585 -0.074345134 0.14503889 -0.049999315
0.21607842 -0.10863516 -0.0016727506 -0.0026408827 0.20285068 -0.23383144 0.00064411794 -0.23792097
0.1443025 0.06574947 0.00849901 0.21054374 0.009334785 0.08975326 -0.10902295 -0.115665525
0.16233324 -0.0210576 -0.0138371205 -0.080700114 -0.22934175 -0.05696816 0.04917216 0.03003805
0.0016133465 0.0014592714 -0.18671831 -0.06959459 -0.07709873 -0.24185725 0.16469455 0.16007522
0.22033912 -0.120367154 -0.02398063 -0.10558446 0.21495605 0.015377079 0.09407748 0.20832601
-0.2085159 -0.03472463 0.28004894 -0.01711464 -0.043376476 0.0034484803 0.008907392 -0.13969108
0.024784291 -0.067246586 0.123068534 0.0055719144 -0.046529673 0.047843833 0.034593 -0.05395579
0.09734832 -0.074170165 0.028338805 0.14967313 -0.0148921 -0.023555363 -0.08670649 -0.03465149
-0.010122905 0.027908325 -0.11613415 -0.002134652 -0.0497274 0.2522743 -0.00467049 -0.12720487
-0.08448559 -0.050830755 -0.007962789 -0.039929383 -0.008016679 0.041511502 0.1425466 0.020485234
-0.08117392 0.09532186 -0.14299849 -0.14592531 -0.10798101 -0.019939428 0.08764453 0.04082772
8.861722e-05 0.03213727 0.12724562 -0.1498731 0.16306667 -0.11972939 0.014198596 -0.011071611
0.16786332 0.10916776 0.07309749 -0.13032322 0.032512605 0.17276204 -0.08979027 0.18909329
-0.08884734 0.054979682 -0.14851722 0.19258982 -0.038467612 -0.001570748 -0.0557021 -0.042226106
-0.040022038 -0.07731341 0.023428394 -0.05911704 0.0067806602 0.044311035 0.10325651 0.2068459
-0.042464558 0.04916427 -0.101957284 0.10171371 -0.0029071087 -0.19957377 0.050928324 -0.019199688
0.010490361 -0.07576963 -0.009428431 0.006635165 -0.044829965 -0.02099774 0.0031511707 -0.08518788
0.049052246 -0.019515354 0.0031168652 0.05307292 0.0011344904 -0.06685762 -0.25788027 -0.006551576
0.055043496 -0.09224698 0.077262245 -0.0062504127 -0.08240683 -0.036359802 0.0895165 -0.050636467
0.003789283 0.16294922 0.12030826 -0.008504474 -0.08364863 -0.07487156 0.017563973 0.104456566
0.040802866 0.031643946 0.038407985 0.0022042687 -0.088305585 0.0313066 -0.18545304 0.029895728
0.20024826 0.015753774 0.15348434 -0.03709464 0.041051283 0.004619114 0.036724772 -0.08179743
00000000: 1554 80bc 1b8e 943d 5918 2b3b bdf4 babc
00000010: 3f0b 4fbe 045b 68be b1a3 9d3d 2bf1 7ebb
00000020: 4b11 55bd 3b99 e3bd e820 fe3d 1664 b2bd
00000030: 024e d93c ab17 bcbd d729 16be 60e7 7dbe
00000040: bb42 f8bc 7d21 a63d 1d56 4ebd 57f2 823b
00000050: 502f 90bd 281d 37bd c387 053c 3a59 9abe
00000060: d1f3 0ebe c169 0f3e a3a3 c13b 82da 003e
00000070: e548 8f3c 2c8a a9bd 4474 143e 7eee be3d
00000080: 0bb7 f4bd a69b 893d 0c11 fabd d42e 8fbd
00000090: 118f 84bc aef4 05bd 7f4a 803d 92c5 c03c
000000a0: ec4c 723b 90c3 223c b63d 59bc 2414 fb3c
000000b0: 51b4 b33b 03e3 083e 6b00 1d3e 1f13 f7bd
000000c0: 120d 0d3d 5209 aa3d 379d 8a3d 7652 a4bd
000000d0: a343 3b3e c3cf dbbd dc1c 4bbd adec 2c3e
000000e0: 2fa2 6c3d 3d96 ef3d c431 b3bd 686b a53d
000000f0: 62f1 4abc eb29 ea3a b270 a4bd 0920 01bd
00000100: fec4 0dbe ee05 0fbe 6310 343d d27b 3a3e
00000110: 8844 7e3d daa7 ed3d 705c 09be e402 253e
00000120: 8577 803d 3cb7 2b3e 8fe0 4dbe c402 aebd
00000130: cf2a 19bc 4342 98bd 1385 143e 15cc 4cbd
00000140: a943 5d3e 1c7c debd 3240 dbba a912 2dbb
00000150: 17b8 4f3e 8271 6fbe 06da 283a 8ea1 73be
00000160: 09c4 133e a8a7 863d 6e3f 0b3c c798 573e
00000170: edf0 183c 8fd0 b73d 6d47 dfbd 0ce2 ecbd
00000180: af3a 263e fd80 acbc 17b5 62bc 1a46 a5bd
00000190: 90d8 6abe 7257 69bd bf68 493d 5b12 f63c
000001a0: ed76 d33a 0645 bf3a 1633 3fbe 9c87 8ebd
000001b0: f0e5 9dbd 6da9 77be b0a5 283e c2ea 233e
000001c0: 94a0 613e 0e83 f6bd 0773 c4bc aa3c d8bd
000001d0: 701d 5c3e 25f0 7b3c b2ab c03d 6a53 553e
000001e0: 3185 55be 6a3b 0ebd 9362 8f3e 0034 8cbc
000001f0: 88ab 31bd e6ff 613b 4ff0 113c 2e0b 0fbe
00000200: 6d08 cb3c 94b8 89bd 5b0b fc3d 9b94 b63b
00000210: e695 3ebd e5f7 433d 64b1 0d3d bf00 5dbd
00000220: 8e5e c73d 87e6 97bd c826 e83c ea43 193e
00000230: fffd 73bc 2df7 c0bc 2c93 b1bd b9ee 0dbd
00000240: 8ada 25bc 00a0 e43c bed7 edbd 85e5 0bbb
00000250: f5ae 4bbd 192a 813e e90a 99bb fe41 02be
00000260: c806 adbd e933 50bd 5c76 02bc fe8c 23bd
00000270: 6458 03bc f707 2a3d bcf7 113e a6d0 a73c
00000280: 833e a6bd 1b38 c33d 326e 12be 726d 15be
00000290: 2625 ddbd 0358 a3bc fa7e b33d f83a 273d
000002a0: 02d8 b938 5fa2 033d ad4c 023e 5578 19be
000002b0: f3fa 263e af34 f5bd 3aa1 683c b465 35bc
000002c0: 5de4 2b3e 5993 df3d 23b4 953d 7373 05be
000002d0: f02b 053d 88e8 303e f6e3 b7bd aca1 413e
000002e0: 98f5 b5bd 6032 613d e614 18be 4436 453e
000002f0: 3790 1dbd 8fe1 cdba e327 64bd 48f5 2cbd
00000300: 26ee 23bd 7e56 9ebd e7ec bf3c b624 72bd
00000310: 4d30 de3b 7d7f 353d 2678 d33d 69cf 533e
00000320: 51ef 2dbd 7960 493d fbce d0bd 474f d03d
00000330: 3185 3ebb 115d 4cbe 389a 503d aa48 9dbc
00000340: c3df 2b3c 1c2d 9bbd b579 1abc cc6b d93b
00000350: a09f 37bd 7403 acbc df83 4e3b fc76 aebd
00000360: 02eb 483d aade 9fbc 5244 4c3b fd62 593d
00000370: 2eb3 943a a6ec 88bd e208 84be 9aae d6bb
00000380: 4a75 613d fceb bcbd ab3b 9e3d 43d0 ccbb
00000390: e9c4 a8bd 04ee 14bd 6d54 b73d 2f68 4fbd
000003a0: 9f55 783b 29dc 263e 2d64 f63d 5956 0bbc
000003b0: f94f abbd 4356 99bd 52e2 8f3c 53ed d53d
000003c0: e820 273d 159d 013d b151 1d3d 7e75 103b
000003d0: 8fd9 b4bd 593b 003d 67e7 3dbe e3e7 f43c
000003e0: e10d 4d3e 0f0e 813c 002b 1d3e 8df0 17bd
000003f0: 6425 283d f05b 973b b76c 163d 6985 a7bd

conv2.bias f4 [64]
-0.03264284 0.057383582 -0.031547952 -0.013856994 -0.0344863 -0.083960176 -0.025529 0.07379403
0.01753964 0.023711082 -0.08408639 -0.077655055 0.021773048 -0.080545105 -0.019403666 -0.031184983
-0.02761154 -0.029827898 -0.015665265 -0.002519038 -0.051606733 -0.0093747685 0.010918022 -0.08137405
0.05168847 -0.06247958 0.010566878 -0.05995157 0.019906512 -0.026274826 -0.053315204 0.037668575
0.036239084 -0.015251594 0.01015685 -0.0013742852 -0.0714909 -0.004041559 -0.01625315 -0.020181917
0.0060492125 -0.03894945 0.0018306822 -0.0059451163 -0.06210122 0.020459143 0.014446974 -0.06737131
-0.041811705 -0.027622495 -0.021485824 -0.01936382 -0.049812954 0.02193327 -0.06895121 -0.057308383
0.019930186 -0.011519192 -0.07127375 -0.017550766 0.032703537 0.0025317317 0.05141686 -0.016359523
00000000: 80b4 05bd 0c0b 6b3d 6d38 01bd 7208 63bc
00000010: 8241 0dbd 50f3 abbd 3222 d1bc 5321 973d
00000020: 4baf 8f3c be3d c23c 7c35 acbd 9d09 9fbd
00000030: 645d b23c d5f4 a4bd 70f4 9ebc a677 ffbc
00000040: 9931 e2bc a359 f4bc 7154 80bc 7216 25bb
00000050: 9561 53bd a198 19bc 81e1 323c 70a7 a6bd
00000060: 4ab7 533d 97ea 7fbd b320 2d3c c78f 75bd
00000070: fb12 a33c 4e3e d7bc 0b61 5abd 5d4a 1a3d
00000080: 6f6f 143d d2e1 79bc eb68 263c 5c21 b4ba
00000090: d269 92bd 0e6f 84bb 5325 85bc 8c54 a5bc
000000a0: 7938 c63b 7589 1fbd 80f3 ef3a 40cf c2bb
000000b0: d95d 7ebd ef99 a73c 00b3 6c3c f8f9 89bd
000000c0: c042 2bbd 9248 e2bc 0a03 b0bc e0a0 9ebc
000000d0: ab08 4cbd 67ad b33c 4b36 8dbd 32bc 6abd
000000e0: a144 a33c feba 3cbc f9f7 91bd a0c6 8fbc
000000f0: 25f4 053d 69eb 253b 7c9a 523d 6804 86bc

conv3.g f4 [64, 1600]
-0.0020662975 0.0015451165 -0.0014766582 0.0020380386 -0.079119936 0.0019828873 0.0008445608 0.05202981
-0.050386623 0.071582586 -0.012605891 0.0004658852 0.07155672 -0.046644486 -0.118026644 0.010983258
0.033256803 0.06751887 0.002093889 -0.013968166 0.0036636842 -0.08573105 -0.052382316 0.05039727
0.0018640896 0.001401528 -0.05209505 -0.0034632112 0.05112307 -0.013369147 0.0010739659 0.057522126
-0.018824846 0.03974562 -0.0004029479 0.12843798 -0.0026651362 0.054881334 -0.0014237844 -0.0387781
0.012707635 -0.045970675 -0.030783026 0.05828813 5.6212535e-05 -0.070709765 -0.03373019 0.0023330722
0.041633017 -0.022871237 0.009855363 0.0012829708 0.0572241 -0.0017118409 -0.011521348 0.011801738
0.0012122068 -0.0018905438 0.00024450818 0.0013546672 -0.07313558 0.00040633866 0.0007652849 -0.12054885
-0.0020690623 0.0015494364 -0.0014717424 0.0020618702 -0.09019434 0.0019775222 0.00083528686 0.043731622
-0.05917669 0.07115195 -0.00997416 0.014678303 0.0707057 -0.04097489 -0.12635556 0.01224624
0.03596812 0.061668742 -0.004767497 -0.014711708 0.0020890916 -0.08952162 -0.056371283 0.057170495
0.0017260312 0.0014163986 -0.05434469 -0.0035648101 0.044955287 -0.017250977 0.0010622041 0.06223506
-0.022528622 0.031303197 -0.00041294293 0.13971783 -0.002686523 0.053876765 -0.0014281492 -0.04742027
0.011799648 -0.047773354 -0.03200721 0.061424267 0.00023376982 -0.08942991 -0.03854953 0.0023541113
0.042657778 -0.038301643 0.012705751 0.001270109 0.06284849 -0.0017308142 -0.011570001 0.01578013
0.0012228749 -0.0019134977 0.00025200815 0.001338552 -0.07939832 0.0004138909 0.0007767446 -0.13384476
-0.0020725036 0.0015567815 -0.001471037 0.0020574934 -0.087190874 0.0019757235 0.00084849517 0.046741836
-0.056402013 0.07921407 -0.020809446 -0.004223541 0.07740363 -0.04917611 -0.1257234 0.01172712
0.035349347 0.06799643 0.00087965047 -0.0149339335 0.0022260938 -0.08875601 -0.053332422 0.05575356
-0.0013573939 0.0014191396 -0.054932762 -0.003355868 0.06035212 -0.03004244 0.0010688895 0.062885076
-0.018815512 0.041060373 -0.00041309244 0.13598429 -0.0026863234 0.05561984 -0.001432226 -0.044997666
0.0107255895 -0.045535203 -0.03069431 0.05938672 6.234681e-06 -0.079662226 -0.035581242 0.002351538
0.041967805 -0.022823974 0.011304835 0.0012679341 0.06156105 -0.0017255394 -0.011012821 0.013260267
0.0012216312 -0.0019101327 0.00025858663 0.0013384001 -0.0755831 0.00041431218 0.0007833891 -0.1260643
-0.001071877 0.0015997787 -0.0012716661 0.0009992012 -0.023246218 0.00045866458 0.0014511562 -0.03416529
-0.052880824 0.011646495 -0.011544036 0.012696692 -0.016341077 -0.00977731 -0.029123018 0.0034439429
0.0101314485 -0.030638896 -0.0167348 -0.0044171605 0.00086239085 -0.0066302516 -0.004956808 0.019263154
-0.0064552617 0.0013988059 -0.013922874 0.0015558082 0.003344718 0.0057167234 0.0006904431 0.022650255
8.447085e-05 -0.009939363 0.00045359516 0.038687468 -0.0014871117 -0.009501438 -0.0008433306 -0.014691485
0.00071607385 -0.004527145 0.0016971519 0.011642491 -0.0030776474 -0.018138114 -0.010458831 0.0015563231
0.005754711 -0.013369458 -0.010775153 -0.00046511638 0.020294541 -0.0008258686 0.0036863254 0.007601849
-0.00015472689 -0.00085519406 0.0003606249 0.00088760577 -0.025295759 -0.00013441505 9.022555e-05 -0.03322506
00000000: b86a 07bb 8285 ca3a 6d8c c1ba 9d90 053b
00000010: a209 a2bd 54f3 013b 8465 5d3a 361d 553d
00000020: 3462 4ebd e499 923d f088 4ebc 0e42 f439
00000030: 548c 923d 4a0e 3fbd f4b7 f1bd 1ff3 333c
00000040: 4938 083d 5547 8a3d a139 093b bcda 64bc
00000050: 6c1a 703b c393 afbd d78e 56bd 5e6d 4e3d
00000060: 7854 f43a 7ab3 b73a 9f61 55bd 0bf7 62bb
00000070: 6d66 513d 440a 5bbc 51c4 8c3a 529c 6b3d
00000080: 9036 9abc 4ecc 223d c042 d3b9 3f85 033e
00000090: 91a9 2ebb 40cb 603d 479e baba c9d5 1ebd
000000a0: af33 503c bf4b 3cbd af2c fcbc 89bf 6e3d
000000b0: c0c5 6b38 48d0 90bd ab28 0abd 75e6 183b
000000c0: 6287 2a3d 765c bbbc 6378 213c 5b29 a83a
000000d0: d163 6a3d d95f e0ba 09c4 3cbc 145c 413c
000000e0: e9e2 9e3a 20cc f7ba 5531 8039 178f b13a
000000f0: 1bc8 95bd da09 d539 669d 483a 51e2 f6bd
00000100: 1b99 07bb 7516 cb3a 7be7 c0ba 7120 073b
00000110: cfb7 b8bd 5199 013b 27f7 5a3a ee1f 333d
00000120: 4263 72bd 1db8 913d a96a 23bc 447d 703c
00000130: 26ce 903d 49d5 27bd 5a63 01be 74a4 483c
00000140: 4f53 133d 5d98 7c3d aa38 9cbb 6009 71bc
00000150: 24e9 083b 1c57 b7bd 93e5 66bd 9c2b 6a3d
00000160: ff3b e23a 73a6 b93a 8a98 5ebd 979f 69bb
00000170: 0923 383d ec51 8dbc a839 8b3a 31ea 7e3d
00000180: f28d b8bc c837 003d 4380 d8b9 3112 0f3e
00000190: 6010 30bb e2ad 5c3d bc30 bbba c23b 42bd
000001a0: 5053 413c fead 43bd fe19 03bd 0398 7b3d
000001b0: 1c20 7539 0727 b7bd 1de6 1dbd 6f47 1a3b
000001c0: ecb9 2e3d 2fe2 1cbd c82b 503c c979 a63a
000001d0: b6b6 803d 7ddc e2ba 1a90 3dbc 5545 813c
000001e0: df48 a03a 54ce faba f61f 8439 5a72 af3a
000001f0: 969b a2bd 7fff d839 739e 4b3a 9a0e 09be
00000200: d7d2 07bb eb0c cc3a d0cf c0ba 03d7 063b
00000210: 2191 b2bd 247b 013b 8c6d 5e3a 5e74 3f3d
00000220: cc05 67bd fd3a a23d 9278 aabc a165 8abb
00000230: cb85 9e3d e46c 49bd a3bd 00be 1b23 403c
00000240: 7aca 103d b641 8b3d 5898 663a 75ad 74bc
00000250: a8e3 113b b6c5 b5bd 1973 5abd d85d 643d
00000260: 95ea b1ba 6c02 ba3a 2d01 61bd 1fee 5bbb
00000270: c933 773d 901b f6bc fb19 8c3a e4c9 803d
00000280: fd22 9abc ec2e 283d 5494 d8b9 773f 0b3e
00000290: 070d 30bb a1d1 633d 88b9 bbba 794f 38bd
000002a0: 62ba 2f3c 1f83 3abd a272 fbbc 7d3f 733d
000002b0: 8133 d136 f325 a3bd a3bd 11bd 431c 1a3b
000002c0: 6fe6 2b3d 58f9 babc ea37 393c cf30 a63a
000002d0: 7127 7c3d 7f2b e2ba 1f6f 34bc 9741 593c
000002e0: 241f a03a 6b5d faba e992 8739 416d af3a
000002f0: 50cb 9abd 0a38 d939 5a5c 4d3a 0017 01be
00000300: 397e 8cba aaaf d13a 09ae a6ba a1f7 823a
00000310: da6e bebc eb78 f039 b934 be3a e7f0 0bbd
00000320: 9099 58bd f1d0 3e3c 3223 3dbc c905 503c
00000330: b9dd 85bc 0331 20bc 6593 eebc c6b3 613b
00000340: 60fe 253c 6cfe fabc 6b17 89bc d4bd 90bb
00000350: 1212 623a 9542 d9bb b86c a2bb c3cd 9d3c
00000360: a986 d3bb 2358 b73a c41c 64bc 43ec cb3a
00000370: 0e33 5b3b 5a53 bb3b dafe 343a 078d b93c
00000380: f125 b138 b6d8 22bc 83d0 ed39 c076 1e3d
00000390: 30eb c2ba ebab 1bbc f512 5dba 8eb4 70bc
000003a0: e7b6 3b3a 7258 94bb f872 de3a 26c0 3e3c
000003b0: 5bb2 49bb 6296 94bc 845b 2bbc 8afd cb3a
000003c0: 0492 bc3b 920b 5bbc 448a 30bc ddda f3b9
000003d0: bd40 a63c 1b7f 58ba 4796 713b ee18 f93b
000003e0: 2f3e 22b9 1a2f 60ba 4112 bd39 37ae 683a
000003f0: 0d39 cfbc c4f1 0cb9 7937 bd38 0017 08bd

conv3.mu f4 [25, 2]
0.48332626 0.5100891 0.4846455 0.5069224 0.4863132 0.51640075 0.19138859 0.1010398
0.48626477 0.5156438 -5.8891e-41 3.851e-42 0.47863904 0.48644966 0.48227236 0.5023537
-2.6569e-41 2.175e-42 0.48524657 0.51473504 0.48036873 0.49937075 0.48276708 0.5080485
0.4808127 0.49488842 0.4847821 0.5087112 0.4858365 0.515628 0.482489 0.5033979
4.651e-42 2.836e-42 0.47532728 0.47153914 0.46920553 0.4575487 -5.343e-42 1.498e-42
0.48167205 0.4992921 0.4816748 0.49845374 0.4866611 0.5166621 0.25680092 0.11139197
9.613e-42 6.6667e-41
00000000: 8a76 f73e 3395 023f 7423 f83e abc5 013f
00000010: 0bfe f83e d732 043f 5ffb 433e f4ed ce3d
00000020: b2f7 f83e 3b01 043f 2aa4 0080 bc0a 0000
00000030: 2d10 f53e ee0f f93e 67ec f63e 419a 003f
00000040: 104a 0080 1006 0000 3d72 f83e adc5 033f
00000050: e4f2 f53e 86ad ff3e 3f2d f73e 770f 023f
00000060: 152d f63e 0462 fd3e 5c35 f83e e63a 023f
00000070: 90bf f83e 3200 043f cc08 f73e afde 003f
00000080: f70c 0000 e807 0000 195e f33e 946d f13e
00000090: b53b f03e d343 ea3e e50e 0080 2d04 0000
000000a0: b89d f63e 37a3 ff3e 149e f63e 5435 ff3e
000000b0: a52b f93e f843 043f 697b 833e 7921 e43d
000000c0: cc1a 0000 d7b9 0000

conv3.sigma f4 [25, 2]
0.4439212 0.50772315 -0.4467172 -0.5315327 0.45847136 0.5312733 0.2377817 0.16318464
-0.45640704 0.52781886 -3.402e-42 -5.8726e-41 -0.44054982 0.5287645 0.4524049 -0.5311194
-3.3e-42 2.783e-42 0.45605558 0.5258491 -0.4422738 0.527152 -0.4534831 -0.5271173
-0.44855732 0.53459054 0.42639858 0.4921614 0.4569232 -0.5275703 -0.4460298 0.5282589
2.6235e-41 6.685e-41 -0.42889678 -0.52282536 0.40107992 -0.4870187 -2.6265e-41 2.9758e-41
0.44965506 -0.5316024 0.45047805 -0.5351524 0.457314 0.5299914 -0.2888321 -0.1811265
8.1211e-41 -2.8724e-41
00000000: a449 e33e 25fa 013f 1eb8 e4be 8712 08bf
00000010: c2bc ea3e 8701 083f 0c7d 733e e019 273e
00000020: 2fae e9be 231f 073f 7c09 0080 b4a3 0080
00000030: bf8f e1be 1c5d 073f 9da1 e73e 71f7 07bf
00000040: 3309 0080 c207 0000 1e80 e93e 0c9e 063f
00000050: b671 e2be 6ff3 063f f02e e8be 29f1 06bf
00000060: 4ea9 e5be edda 083f ea50 da3e 94fc fb3e
00000070: d6f1 e93e d90e 07bf 055e e4be fa3b 073f
00000080: 2249 0000 5aba 0000 5c98 dbbe e2d7 05bf
00000090: 595a cd3e 845a f9be 3749 0080 f452 0000
000000a0: 3039 e63e 1817 08bf 0fa5 e63e bfff 08bf
000000b0: 1025 ea3e 84ad 073f cde1 93be 3a79 39be
000000c0: 62e2 0000 1250 0080

conv3.root f4 [64, 64]
-0.0021349422 0.0017194498 -0.0014445754 0.0023090763 -0.109766334 0.0018913511 0.00091304636 0.030901344
-0.07661509 0.08480276 -0.0390322 0.019606192 0.05764975 -0.031700883 -0.13375507 0.017541477
0.029178241 0.06274546 -0.021754703 -0.020681523 -0.00046327876 -0.084274076 -0.06609769 0.08603533
-0.012908808 0.0016811189 -0.06928169 -0.002521978 0.047161106 -0.05143949 0.0010378961 0.087646425
-0.017059047 0.035767484 -0.00043706602 0.1495314 -0.0029924957 0.055745088 -0.0016049976 -0.06567235
0.0038122816 -0.04196051 -0.02380521 0.053798605 -0.0015093598 -0.09746556 -0.042703386 0.0026227876
0.040016454 -0.03370958 0.0072470247 0.00087946374 0.07743101 -0.00191821 -0.0008370604 0.01845208
0.001283859 -0.0021519188 0.00048936764 0.0011443268 -0.0851606 0.00046969604 0.0008954468 -0.12414551
-0.0005189462 -0.00041245657 0.00026329025 -0.0009566266 -0.012185413 -0.001026131 0.00086688506 -0.032107968
-0.09017613 -0.07196573 -0.0065735443 0.033958115 0.047628272 0.009707308 0.0195508 0.0051332926
-0.011970145 -0.068358906 -0.06912998 -9.3237555e-05 0.0031418821 0.07405629 0.016456341 0.044259995
-0.021067522 -0.000578289 0.003863491 0.009644461 -0.080479115 0.05450657 0.00020960027 0.047078554
0.013141129 -0.029438604 0.0015512239 -0.026255885 0.00057616906 -0.015125429 -0.00059296464 0.025962638
0.015569744 0.019705076 0.050545488 -0.0066303685 -0.0031555488 -0.049798653 0.0075829043 -0.001191151
-0.026118353 -0.028544266 0.002684147 -0.0004433552 -0.0025944225 -8.2685365e-05 0.0454316 0.012106208
0.000845321 0.0015668441 -0.0017968 -0.000913182 -0.044505972 0.00081956096 -0.00075879006 -0.020282079
-0.00010658517 0.00016324341 -0.00081303925 -0.0009211378 0.006555616 -0.0002223102 0.0010990124 -0.048791416
0.0944974 0.031235816 0.004576398 -0.027927296 -0.04193754 0.08682766 0.004903606 -0.012805102
-0.026655756 0.077109195 0.07158891 0.008125006 0.0045346385 -0.042132467 -0.03391255 -0.09843552
0.023987878 -0.0007324861 -0.013516213 -0.0059938594 0.050955903 0.01591965 0.0006190334 -0.030730173
-0.00022276472 0.011786256 0.0017767323 -0.0021924686 -0.00021961826 -0.064997345 -0.00013635067 -0.0026860798
-0.040039126 -0.013780887 -0.03632114 0.0074075097 0.0026988077 0.009535269 0.009750444 3.9109666e-05
0.008567013 0.0143890735 -0.05234458 -0.0017823573 0.014109724 -0.00026530868 -0.03677433 -0.035479594
-0.0018241784 0.000617502 0.00097636 0.0007430038 0.0717649 -0.0009926214 -0.0010717701 -0.011122933
-0.0014094155 -0.00035240033 0.0017081676 0.00063396187 -0.023909988 -0.00071370765 -0.0012287837 0.07295939
0.031701606 -0.014481353 0.04277573 0.07029091 -0.10830994 -0.013114883 -0.0374035 0.0018679724
-0.001455833 -0.0024709527 -0.03484628 -0.0009142234 -0.016892338 -0.013952145 -0.025555475 0.06270822
0.022177678 0.0011098683 -0.019528484 -0.0072035207 -0.04307206 -0.07017952 0.00054918125 -0.020495288
-0.018259484 0.007092815 7.357727e-05 -0.03197703 0.0006038396 0.09474316 0.0007284786 -0.027875345
-0.014503924 0.0040470734 -0.026929032 -0.050692517 0.0051389094 -0.09869863 -0.042486493 -0.0005293462
0.023445826 -0.041447666 0.045875203 0.0025757202 0.010304949 0.001553042 -0.040128 0.020100297
0.0036988268 -0.0009130519 -0.00036056538 -0.0011545772 0.0017775361 0.0027576657 -0.00037147215 0.0015046449
00000000: 63ea 0bbb 295f e13a e857 bdba df53 173b
00000010: 2ccd e0bd 36e7 f73a 8159 6f3a d124 fd3c
00000020: 5fe8 9cbd 12ad ad3d 3ae0 1fbd 2a9d a03c
00000030: 2522 6c3d c9d8 01bd 17f7 08be 25b3 8f3c
00000040: 3507 ef3c b180 803d eb36 b2bc 4c6c a9bc
00000050: 39e4 f2b9 e397 acbd 3a5e 87bd 4b33 b03d
00000060: 777f 53bc fd58 dc3a 8fe3 8dbd c547 25bb
00000070: 012c 413d 37b2 52bd 040a 883a f87f b33d
00000080: 6abf 8bbc ed80 123d 0226 e5b9 c21e 193e
00000090: bf1d 44bb f654 643d c85e d2ba 3a7f 86bd
000000a0: 79d7 793b c9de 2bbd 2503 c3bc ed5b 5c3d
000000b0: b6d5 c5ba 069c c7bd bfe9 2ebd 13e3 2b3b
000000c0: 4be8 233d 0e13 0abd 7378 ed3b d08b 663a
000000d0: 2694 9e3d 726c fbba 2c6e 5bba d128 973c
000000e0: 2947 a83a 3507 0dbb e848 003a 3cfd 953a
000000f0: ae68 aebd 8941 f639 6bbc 6a3a 0040 febd
00000100: e409 08ba fc3e d8b9 380a 8a39 20c6 7aba
00000110: 54a5 47bc 3e7f 86ba ac3f 633a a583 03bd
00000120: 43ae b8bd c562 93bd e366 d7bb aa17 0b3d
00000130: dd15 433d 670b 1f3c 0029 a03c 2e35 a83b
00000140: 6d1e 44bc c1ff 8bbd 0594 8dbd 8888 c3b8
00000150: 09e8 4d3b d3aa 973d 73cf 863c f849 353d
00000160: cc95 acbc 5198 17ba 9f32 7d3b cd03 1e3c
00000170: 3cd2 a4bd 4842 5f3d 25c8 5b39 71d5 403d
00000180: e44d 573c 3a29 f1bc 7052 cb3a 9516 d7bc
00000190: 0d0a 173a a6d0 77bc 2f71 1bba 99af d43c
000001a0: 3d18 7f3c 8a6c a13c c908 4f3d 9043 d9bb
000001b0: 53cd 4ebb acf9 4bbd 037a f83b 6520 9cba
000001c0: 28f6 d5bc aad5 e9bc 84e8 2f3b 2172 e8b9
000001d0: 3007 2abb 5e67 adb8 7c16 3a3d 1e59 463c
000001e0: 8898 5d3a 905e cd3a 9a82 ebba 9b62 6fba
000001f0: e54b 36bd ced7 563a 8ae9 46ba 9a26 a6bc
00000200: 7a86 dfb8 522c 2b39 2422 55ba 8378 71ba
00000210: 7ed0 d63b f11b 69b9 bd0c 903a 82d9 47bd
00000220: da87 c13d 41e2 ff3c 9cf5 953b c9c7 e4bc
00000230: b3c6 2bbd b3d2 b13d 6eae a03b 7ecc 51bc
00000240: 2c5d dabc 6deb 9d3d 359d 923d bf1e 053c
00000250: 4e97 943b 1893 2cbd e3e7 0abd 9098 c9bd
00000260: 3a82 c43c 4f04 40ba 1b73 5dbc 2368 c4bb
00000270: 23b7 503d ed69 823c a146 223a d8bd fbbc
00000280: f395 69b9 241b 413c 3ee1 e83a 85af 0fbb
00000290: 5449 66b9 541d 85bd 5bf9 0eb9 f108 30bb
000002a0: 1100 24bd 3bc9 61bc 7ac5 14bd b2ba f23b
000002b0: 7bde 303b d139 1c3c 54c0 1f3c af09 2438
000002c0: a85c 0c3c 26c0 6b3c 4567 56bd fd9d e9ba
000002d0: 792c 673c 2119 8bb9 aea0 16bd 0d53 11bd
000002e0: 4519 efba dcdf 213a 69f2 7f3a 24c6 423a
000002f0: 7af9 923d d91a 82ba a37a 8cba f63c 36bc
00000300: 23bc b8ba 5fc2 b8b9 98e4 df3a 7630 263a
00000310: e1de c3bc 1c18 3bba 240f a1ba bc6b 953d
00000320: 8bd9 013d 3243 6dbc 9b35 2f3d aef4 8f3d
00000330: 9ad1 ddbd cedf 56bc 6a34 19bd c1d6 f43a
00000340: a6d1 beba b5ef 21bb f9ba 0ebd 7ea8 6fba
00000350: cd61 8abc 8a97 64bc b759 d1bc 2b6d 803d
00000360: f6ad b53c 0079 913a 33fa 9fbc 830b ecbb
00000370: 546c 30bd 48ba 8fbd eef6 0f3a bce5 a7bc
00000380: ea94 95bc d86a e83b 7f4d 9a38 59fa 02bd
00000390: fd4a 1e3a b408 c23d 5ff7 3e3a d65a e4bc
000003a0: dea1 6dbc 509d 843b 469a dcbc f5a2 4fbd
000003b0: 4c64 a83b 8222 cabd 5106 2ebd d2c3 0aba
000003c0: 7611 c03c 07c5 29bd a3e7 3b3d 6acd 283b
000003d0: 17d6 283c 718f cb3a 425d 24bd 61a9 a43c
000003e0: 0468 723b e059 6fba 440a bdb9 2f55 97ba
000003f0: 37fc e83a f4b9 343b 26c2 c2b9 8137 c53a

conv3.bias f4 [64]
-0.0017673642 -0.00038434681 -0.0019289157 0.0015312361 0.07118197 0.00042719464 -0.0022238854 0.012103742
-0.017574036 -0.015610983 0.10314033 0.04970941 -0.10933814 -0.09722344 0.067275025 -0.011931554
0.02070566 0.021202644 0.008428031 0.06261274 0.038057342 0.07723721 -0.0049775084 -0.0033343092
0.06638604 0.00038960658 0.03719314 0.02756769 -0.040664945 0.027457036 -0.0021440508 -0.040656097
0.07316286 -0.0077958996 -0.00014108086 -0.15709963 -0.0016615499 -0.09773296 0.0006656369 0.1300504
-0.023535648 -0.026137272 0.0733979 0.02800362 -0.017361611 -0.022683384 0.022613557 0.0016025327
0.0056647253 0.06081219 -0.036230225 0.0017435976 -0.0022987253 -0.00231118 -0.0340205 0.006157065
0.0011908001 -0.0024280024 -0.0010622452 -0.00019953604 0.016902264 0.0010411486 -5.835525e-05 -0.02518511
00000000: e7a6 e7ba 2882 c9b9 acd3 fcba c2b3 c83a
00000010: dac7 913d 18f9 df39 9bbe 11bb c64e 463c
00000020: 6df7 8fbc 35c5 7fbc 3d3b d33d 189c 4b3d
00000030: adec dfbd 151d c7bd 7dc7 893d 917c 43bc
00000040: eb9e a93c 2bb1 ad3c b915 0a3c 1c3b 803d
00000050: 04e2 1b3d 8b2e 9e3d 5e1a a3bb 6d84 5abb
00000060: 67f5 873d 1c44 cc39 d557 183d a3d5 e13c
00000070: 4990 26bd 94ed e03c 3483 0cbb 0287 26bd
00000080: 69d6 953d bf74 ffbb 1bef 13b9 bade 20be
00000090: 5dc8 d9ba 3828 c8bd 237e 2e3a ef2b 053e
000000a0: d5cd c0bc d51d d6bc a351 963d d967 e53c
000000b0: f039 8ebc 81d2 b9bc 1140 b93c 130c d23a
000000c0: 299f b93b 3416 793d 2566 14bd 6d89 e43a
000000d0: 36a6 16bb 2b77 17bb 1459 0bbd 34c1 c93b
000000e0: 9f14 9c3a 1f1f 1fbb 093b 8bba 8c3a 51b9
000000f0: 9e76 8a3c 2677 883a 79c2 74b8 0151 cebc

fc1.weight f4 [128, 64]
-0.0047143325 0.0069360677 -0.0053836247 0.0049255895 0.12813914 0.0027514892 0.0031174785 0.1307218
0.02338602 0.12080087 -0.036562234 -0.07465736 0.047083095 -0.21708281 0.0034221062 -0.0039571756
0.057406634 0.14495839 0.052373994 0.007969525 -0.098775744 0.013358278 0.19272149 -0.075545006
-0.027765436 0.006804406 -0.0030476283 0.026487682 0.1693097 -0.06288236 0.0036409998 0.02108648
0.11126766 0.16407034 0.0035953936 0.020107271 -0.0043062298 0.03195552 -1.0332294e-05 0.023365302
-0.012210486 0.080340266 0.011239292 -0.03246227 -0.015019668 0.20617276 -0.04889835 0.005044568
-0.009571207 0.17635396 0.081596956 0.0058079064 -0.09814812 -0.00039556558 -0.069679104 0.039707728
0.0012834852 -0.004158285 0.0025040167 0.005364169 0.073100366 0.0020688423 -0.0046837665 0.13101774
0.003656438 -0.00093786657 0.0029293534 -0.0015242732 0.03988096 -0.0056145573 -0.003132569 0.24429087
-0.016362641 -0.04839382 0.0012467351 -0.017058332 0.12172739 -0.092423715 -0.036382347 0.0035332981
-0.015269067 0.12140302 -0.0108206365 0.009157554 0.011207608 0.023363888 0.06568905 -0.01765275
-0.009513483 6.644978e-05 0.008024483 0.01527448 -0.10172928 0.18737029 -0.002516941 0.10771593
0.036561802 0.08360468 0.001225633 -0.06363457 0.0031248943 0.14757201 0.0008367627 0.10909959
0.09441856 0.0034771473 0.04012758 0.028694378 0.00040959736 0.1843817 -0.03931186 -0.0021656288
-0.034006603 -0.02994079 0.004062724 -0.0022451708 -0.08828772 -0.00012964876 -0.0027890026 0.004584348
-0.0025954703 0.0021754345 -0.0040171896 -0.0020266876 -0.09535998 -0.0012684555 -0.005325207 -0.124369115
0.009625204 -0.011565712 0.012077745 -0.006775769 -0.0011507947 -0.0021255806 -0.0066457735 -0.023720575
0.07389033 -0.14540423 0.11096202 0.07398115 0.13761233 -0.06301593 0.1831181 0.026138412
0.04592018 -0.060682893 -0.07511573 -0.0073492313 -0.053572543 0.053952467 -0.12626423 0.23933852
0.03786492 -0.012387931 0.115600936 -0.027893754 -0.15824026 -0.18432608 -0.0049472223 -0.16047724
-0.15195581 -0.16432631 -0.0077851443 -0.049896225 0.009055646 0.043611567 -0.005849589 -0.047846552
0.04721379 -0.038858112 0.0019529918 0.07996486 0.008572187 -0.13495153 0.056130253 -0.011255112
0.016487563 -0.08191948 0.19086264 -0.00047902192 0.0596535 0.0021081408 0.092866726 0.035233777
-0.0047853035 0.009549781 -0.007135996 -0.008599722 -0.013884237 -0.007310595 -0.005851672 0.13039331
-0.0029946496 0.0056742434 0.0011102062 0.0039857537 0.00374719 -0.0006926373 0.002393469 0.26586387
0.020516548 0.058999293 -0.042343892 -0.067149125 0.13055432 -0.028026449 -0.034563325 -0.0059612235
-0.017008074 0.21155871 0.022894515 0.013025604 0.022677712 -0.0005656309 0.050927363 -0.048249334
-0.019497834 0.007112244 -0.008637114 0.015546364 0.023846008 0.02879071 0.002682259 0.1393763
0.0545739 0.15266547 -0.0012020797 -0.05874721 -0.0009363292 0.15086263 -0.0016961474 0.079044685
0.08784209 -0.0021345455 0.033260673 -0.06753207 -0.002520578 0.084303774 -0.009437832 0.00057211105
-0.012832881 0.035718817 -0.004179506 0.0086829765 -0.05150933 0.0024144053 0.0011039351 -0.012539905
0.007349912 -0.003293728 -0.0024882678 0.0018247024 -0.053605158 0.005121358 0.001679556 -0.049622133
00000000: b07a 9abb f447 e33b 1e69 b0bb d766 a13b
00000010: e836 033e 5452 343b 9c4e 4c3b efdb 053e
00000020: 0a94 bf3c 7266 f73d 48c2 15bd f5e5 98bd
00000030: 34da 403d f54a 5ebe 6a45 603b 32ab 81bb
00000040: 3823 6b3d f96f 143e 1d86 563d 9c92 023c
00000050: f04a cabd aedc 5a3c c858 453e 57b7 9abd
00000060: 5774 e3bc 7ff7 de3b b8ba 47bb b2fc d83c
00000070: 865f 2d3e 77c8 80bd d79d 6e3b 8ebd ac3c
00000080: 4de0 e33d 0e02 283e b2a0 6b3b 01b8 a43c
00000090: 461b 8dbb cbe3 023d dd58 2db7 9768 bf3c
000000a0: 7e0e 48bc 7089 a43d 0225 383c 28f7 04bd
000000b0: 0e15 76bc f41e 533e a349 48bd e74c a53b
000000c0: 8dd0 1cbc 2296 343e 4e1c a73d 4050 be3b
000000d0: e201 c9bd ea63 cfb9 ebb3 8ebd 92a4 223d
000000e0: 9e3a a83a 3942 88bb 6e1a 243b e9c5 af3b
000000f0: a5b5 953d 6a95 073b 487a 99bb 8429 063e
00000100: daa0 6f3b 29db 75ba 65fa 3f3b 1fca c7ba
00000110: 385a 233d 52fa b7bb c94b 4dbb 6327 7a3e
00000120: f20a 86bc 9938 46bd 7d69 a33a eabd 8bbc
00000130: 364c f93d a548 bdbd a805 15bd e88e 673b
00000140: 1c2b 7abc 26a2 f83d 0a49 31bc 9109 163c
00000150: 1da0 373c a065 bf3c fb87 863d 809c 90bc
00000160: 71de 1bbc f45a 8b38 1f79 033c d041 7a3c
00000170: 7157 d0bd ffdd 3f3e 43f3 24bb 2b9a dc3d
00000180: d4c1 153d ee38 ab3d 6ba5 a03a d752 82bd
00000190: 07cb 4c3b 1e1d 173e 325a 5b3a 9b6f df3d
000001a0: 855e c13d dae0 633b d15c 243d 7910 eb3c
000001b0: 3abf d639 8ece 3c3e 7905 21bd 39ed 0dbb
000001c0: 824a 0bbd 6346 f5bc 9920 853b b723 13bb
000001d0: 31d0 b4bd 53f2 07b9 b3c7 36bb 4c38 963b
000001e0: c418 2abb bc91 0e3b a1a2 83bb 2dd2 04bb
000001f0: 184c c3bd 4e42 a6ba 137f aebb 3cb5 febd
00000200: 08b3 1d3c 1d7e 3dbc bce1 453c 4507 debb
00000210: 43d6 96ba 534d 0bbb cac4 d9bb a751 c2bc
00000220: d053 973d d9e4 14be 0e40 e33d 6e83 973d
00000230: 3fea 0c3e 7f0e 81bd 5083 3b3e 3920 d63c
00000240: cc16 3c3d a08e 78bd 47d6 99bd d2d1 f0bb
00000250: e26e 5bbd 43fd 5c3d 694b 01be 2815 753e
00000260: 3f18 1b3d c0f6 4abc 2fc0 ec3d 7181 e4bc
00000270: bc09 22be fabf 3cbe 4f1c a2bb 2554 24be
00000280: 4e9a 1bbe 2845 28be 861a ffbb fc5f 4cbd
00000290: 225e 143c 0ba2 323d e9ad bfbb bffa 43bd
000002a0: 3f63 413d af29 1fbd 88fb ff3a 9ec4 a33d
000002b0: 5c72 0c3c bc30 0abe d6e8 653d 5c67 38bc
000002c0: ed10 873c 66c5 a7bd 7f71 433e 3c25 fbb9
000002d0: 3a57 743d bc28 0a3b e930 be3d 4b51 103d
000002e0: 09ce 9cbb af76 1c3c 13d5 e9bb d9e5 0cbc
000002f0: b67a 63bc b78d efbb 62bf bfbb d385 053e
00000300: e241 44bb 01ef b93b 5784 913a ed9a 823b
00000310: 6b93 753b 1a92 35ba bfdb 1c3b 4f1f 883e
00000320: 5212 a83c 3ea9 713d ca70 2dbd 7b85 89bd
00000330: 08b0 053e b997 e5bc 4692 0dbd 5e56 c3bb
00000340: 8454 8bbc d9a2 583e 478d bb3c 5869 553c
00000350: 9cc6 b93c d946 14ba 3699 503d 18a1 45bd
00000360: ecb9 9fbc d40d e93b af82 0dbc 2db6 7e3c
00000370: b458 c33c 7fda eb3c d7c8 2f3b a9b8 0e3e
00000380: e288 5f3d 5654 1c3e 1a8f 9dba eaa0 70bd
00000390: fd73 75ba bc7b 1a3e 4351 deba 2ee2 a13d
000003a0: 8ee6 b33d bbe3 0bbb 583c 083d 414e 8abd
000003b0: 4830 25bb 75a7 ac3d 23a1 1abc b9f9 153a
000003c0: 0141 52bc e54d 123d 3df4 88bb 0b43 0e3c
000003d0: 72fb 52bd 003b 1e3b eab1 903a 2c74 4dbc
000003e0: 88d7 f03b 96db 57bb 3512 23bb da2a ef3a
000003f0: 1591 5bbd 11d1 a73b 8c24 dc3a 9440 4bbd
