mnist/evaluation_resources/C_sm_nh_100_state_dict.pt (torch_old, 685154 bytes, 19 tensors)

conv1.g f4 [1, 800]
00000000: 7d35 cc3c ca2c d53d f68b 6d3c bab1 a5be
00000010: 2e4b 5fbd 9228 02be 7a7a c33e 2101 563e
00000020: 855f c63d 3184 f4bc 296b 123e 3600 b1be
00000030: 55b5 94bd ffc2 82bd 18fc aabe af77 8f3d
00000040: 9467 743d 26e6 83be 4a1c 62be adac b4bd
00000050: b5d6 d4bd 64a2 ffbd 23f2 383e e2c0 8dbe
00000060: 4efc 6f3e 9241 bfbd 5f14 acbe ba4c 753d
00000070: 0b69 e53d 0ea0 a5be 62b6 c5bd 72c9 4bbc
00000080: 0304 0080 b009 0080 091e 0000 5ea3 0000
00000090: 4401 0000 4700 0000 db28 0000 400c 0080
000000a0: 42a1 0080 eb27 0080 7603 0080 e049 0080
000000b0: c81d 0080 6f52 0000 4a09 0000 06ba 0080
000000c0: fc27 0080 b721 0080 1120 0000 8f06 0000
000000d0: 572b 0080 6fa4 0000 27b4 0000 07e5 0080
000000e0: 81a3 0080 3309 0080 f713 0080 fac9 0000
000000f0: a811 0000 220b 0180 bce4 0080 44a4 0080
00000100: d907 0000 9308 0000 a57b 0080 df08 0080
00000110: 6e15 0080 5f0b 0100 d1e4 0080 4912 0000
00000120: 4794 0000 8e29 0080 bd27 0080 6f21 0080
00000130: aca4 0080 16ba 0080 5217 0000 914b 0000
00000140: 3905 0000 c753 0000 7cbc 0080 b50a 0180
00000150: 661f 0000 174a 0080 7c79 0000 a918 0080
00000160: 294a 0080 450a 0180 434c 0000 bc1e 0080
00000170: dda3 0080 6753 0000 7803 0000 25e5 0000
00000180: de73 78bd be0b 393e f33b cd3c 1ade bfbe
00000190: 6643 4c3e bd42 1abe f22f 703e 5678 783e
000001a0: ad94 7d3e 8bf8 27bd e497 5f3e 10f9 96be
000001b0: 6832 56be 61c6 68be b285 90be 0792 123d
000001c0: 6a40 893c b5af 83be f5ca 8abe f2d0 7d3d
000001d0: e55e 09be 8561 25be 540e f83d e2ed dcbb
000001e0: c415 ca3d ea20 0d3d c7d2 15be 6483 04be
000001f0: 6af3 aabd 8633 9bbe 2a05 71bd f653 89be
00000200: 4abf f9be 63e9 263e 2842 3ebd 8352 123e
00000210: 1243 d7bd 96a1 71be f4d7 ddbe d530 7b3e
00000220: 1078 e5be 0366 d13e 7aa0 e5be 7146 b03c
00000230: 1ca2 56be bcfc a53e 9e83 94be f3c6 d73d
00000240: e89c b43e 76b8 203e b544 ad3e be11 ddbe
00000250: 2901 b6bd 5ebd d43d d445 8bbb 597b b73d
00000260: 372f 6c3e 17da fa3d 88a7 f93b c159 313e
00000270: 5aea 0abe a6af 0c3f bd79 b23c 8bf9 a03e
00000280: eb4a 0080 7702 0080 fc21 0000 17ba 0080
00000290: fa0a 0000 9011 0080 c8a4 0000 9db4 0000
000002a0: 7ee2 0000 060c 0100 bc4b 0000 fd4b 0000
000002b0: df4b 0080 0905 0080 bc02 0000 eb0a 0180
000002c0: 8cb9 0000 6cb4 0000 3e1b 0080 ba26 0000
000002d0: 4409 0080 784c 0000 b0a2 0000 22e2 0080
000002e0: 4d08 0080 7cbc 0000 824c 0080 2609 0080
000002f0: e3b9 0080 66e2 0000 f007 0080 8c9e 0000
00000300: 01d3 6a3e c1ef 8fbe 2676 26bc 8375 603c
00000310: 32d6 a7bc 2576 e23d 1bc6 9abc d5f3 15bd
00000320: 5bc5 31be 0582 80be a04c bc3d bb17 cb3d
00000330: 8982 0fbe 2dc6 bc3e 55aa 59be 5a97 42bd
00000340: e1c3 373e 5b03 683e b7ef 0cbe 71bb ab3d
00000350: d50e 073e 2111 403e ba98 833e 4978 cd3d
00000360: 37e5 6b3e ea53 22be ed70 ddbd db66 583e
00000370: bf76 9b3e 5549 aebe e8e6 7ebe 6bff 743d
00000380: b41d a3be 7c2c 9e3e 26e6 003d b2bf bcbe
00000390: 8ce6 c33c d50a 2cbe 12f0 9e3e c8b9 ecbd
000003a0: c65b e03e 045f f9bc c303 debd 0163 2bbe
000003b0: 7a9b 55be 5590 aebe 12e3 bdbd e7b0 023d
000003c0: 5fb1 8ebe f5df 75ba 9b4d cdbe e8d9 48bc
000003d0: 3f24 e63b 3ef7 1cbe aea1 8cbe 4f39 a4be
000003e0: c5e6 643d 3ccd 893d 71e0 1b3d 7764 853c
000003f0: d7ae d5be 17e3 77be 2417 a0be 5c0f cdbe
0.024927849 0.104089335 0.014498701 -0.32362157 -0.054515056 -0.12710789 0.3817938 0.20898868
0.09686188 -0.02984819 0.14298691 -0.34570473 -0.07261149 -0.06384849 -0.33395457 0.0700525
0.059669092 -0.25761527 -0.22081104 -0.08821998 -0.103925146 -0.124821454 0.18061118 -0.2768622
0.2343609 -0.093386784 -0.33609292 0.059887625 0.11201676 -0.32348675 -0.096539274 -0.012438165
-1.439e-42 -3.475e-42 1.0775e-41 5.8605e-41 4.54e-43 1e-43 1.4656e-41 -4.394e-42
-5.7848e-41 -1.432e-41 -1.242e-42 -2.6501e-41 -1.0683e-41 2.9572e-41 3.332e-42 -6.6733e-41
-1.4344e-41 -1.2095e-41 1.1503e-41 2.353e-42 -1.5547e-41 5.8988e-41 6.4626e-41 -8.216e-41
-5.8654e-41 -3.3e-42 -7.162e-42 7.2456e-41 6.334e-42 -9.5829e-41 -8.2054e-41 -5.8927e-41
2.815e-42 3.076e-42 -4.4355e-41 -3.182e-42 -7.688e-42 9.5915e-41 -8.2084e-41 6.56e-42
5.3192e-41 -1.4907e-41 -1.4255e-41 -1.1994e-41 -5.9073e-41 -6.6755e-41 8.366e-42 2.7108e-41
1.874e-42 3.0054e-41 -6.7615e-41 -9.5676e-41 1.1264e-41 -2.6578e-41 4.358e-41 -8.846e-42
-2.6604e-41 -9.552e-41 2.7358e-41 -1.1025e-41 -5.8783e-41 2.9919e-41 1.244e-42 8.2202e-41
-0.060657375 0.18070886 0.025053 -0.37474138 0.19947585 -0.15064521 0.2345579 0.24264655
0.24763747 -0.041008513 0.21835285 -0.29486895 -0.20917666 -0.22731926 -0.28227 0.035783794
0.016754348 -0.2571999 -0.2710797 0.061966844 -0.13415106 -0.16150482 0.12112108 -0.006742225
0.09867433 0.034455217 -0.14631186 -0.12940747 -0.08347209 -0.30312747 -0.058842815 -0.2682187
-0.48778754 0.16299967 -0.04644981 0.14289288 -0.105108395 -0.23596796 -0.43328822 0.24530347
-0.44818163 0.4089814 -0.44848996 0.021517964 -0.20960277 0.32419384 -0.29006666 0.105359934
0.3527596 0.15695366 0.33841482 -0.431776 -0.0888694 0.103876814 -0.0042502675 0.089590736
0.23064886 0.122486286 0.0076188482 0.17319395 -0.1356596 0.5495552 0.021786565 0.31440386
-2.6876e-41 -8.84e-43 1.2191e-41 -6.6756e-41 3.938e-42 -6.3e-42 5.9112e-41 6.4792e-41
8.125e-41 9.6149e-41 2.7168e-41 2.726e-41 -2.7217e-41 -1.806e-42 9.81e-43 -9.5752e-41
6.6562e-41 6.4723e-41 -9.773e-42 1.3892e-41 -3.324e-42 2.7432e-41 5.8361e-41 -8.1121e-41
-2.978e-42 6.7615e-41 -2.7446e-41 -3.282e-42 -6.6684e-41 8.1216e-41 -2.847e-42 5.6876e-41
0.22932054 -0.28112605 -0.010160005 0.013699892 -0.020487878 0.110576905 -0.018893292 -0.03660949
-0.17360441 -0.25099197 0.091943026 0.099166356 -0.14014639 0.36869946 -0.21256383 -0.04750762
0.17945816 0.2265753 -0.13763319 0.08385361 0.13189252 0.18756534 0.2570246 0.10032708
0.23036657 -0.15852323 -0.108125545 0.21132986 0.30364034 -0.34040323 -0.24892771 0.059813898
-0.318586 0.30893314 0.031469487 -0.36865002 0.023913644 -0.16801007 0.31042534 -0.115588725
0.43820018 -0.030440815 -0.10840561 -0.16736986 -0.20860091 -0.34094492 -0.09271826 0.03190699
-0.27869698 -0.00093793805 -0.4009827 -0.012258984 0.007023364 -0.1532869 -0.27467102 -0.32074973
0.05588414 0.067285985 0.03805584 0.016283257 -0.41734955 -0.24207722 -0.31267655 -0.4005078

conv1.mu f4 [25, 2]
00000000: 7be3 14be 6e1d d13e eca3 0000 d929 0000
00000010: 71b4 0000 e10c 0000 7915 ce3d 3ab9 a43d
00000020: 178b 333f 7642 943e e89d 0000 97c9 0080
00000030: bd6a 6c3e e5f1 383f 681c a93e 6d56 b63e
00000040: 0e0c 0100 c3a0 0080 2b58 c63e 236f a63e
00000050: 4cb6 ea3d 2100 0e3d 7d5e 0b3f e28d 003f
00000060: ac0b 0180 4fe2 0000 5004 0000 e8e1 0000
00000070: 7eaf 0f3b 95c7 d23e 663f bf3e 3d8a 163f
00000080: c583 113f a5e7 a23e 2b17 003e 1e2a a0bd
00000090: 9c03 0080 ca15 0080 2136 023f d219 fd3e
000000a0: bbfc 023f b810 033f d413 3f3e 5299 a33e
000000b0: cb26 a13e 2b0e 12be 47ec d43e df74 923d
000000c0: 4b09 0080 adb9 0080
-0.14539902 0.40842766 5.8804e-41 1.5012e-41 6.473e-41 4.62e-42 0.10062689 0.08043142
0.7013411 0.28956956 5.6646e-41 -7.2317e-41 0.23087592 0.722441 0.33029485 0.35612813
9.616e-41 -5.767e-41 0.38739142 0.32506666 0.114605516 0.03466809 0.5444105 0.50216496
-9.6023e-41 8.1184e-41 1.547e-42 8.104e-41 0.002192467 0.41167894 0.37353057 0.58804685
0.5684169 0.31817356 0.12508838 -0.07820533 -1.295e-42 -7.816e-42 0.50863844 0.49433762
0.51166886 0.51197386 0.18659908 0.31952912 0.3147491 -0.14263217 0.41586515 0.07151198
-3.334e-42 -6.6608e-41

conv1.sigma f4 [25, 2]
00000000: 39e7 b43e 3fd3 76be f70b 0100 a596 0000
00000010: 8d27 0000 b74b 0000 6387 923e 68f1 9d3e
00000020: 756e 9e3e f9ae b8bd 8095 0000 c1df 0080
00000030: 14fd 3fbe e357 893e c46f e73d 5c8f ab3d
00000040: 4404 0080 4b08 0000 1394 97bd c4e9 dc3d
00000050: 7238 c63e 144d 7fbe 8041 96be fd25 96bd
00000060: c2ba 0000 dd29 0000 4ea4 0000 d5e3 0080
00000070: ccbb 7dbe a5fe 5d3e 5341 f8bd c413 163f
00000080: bd34 de3e 243d 963d 1e54 0cbf a4da 913e
00000090: 7519 0000 ccb9 0000 109d 723d 06b5 3cbe
000000a0: 725a 65bd 7781 543e be4c 423e 723a c23d
000000b0: f31c 8f3e 6a28 ac3e 0b0a a33e 75ac 06be
000000c0: 7ee2 0000 aeb9 0000
0.3533266 -0.24104021 9.6128e-41 5.4041e-41 1.4188e-41 2.7161e-41 0.28618917 0.3084824
0.30943647 -0.090177484 5.363e-41 -8.0268e-41 -0.18748885 0.26824865 0.113006145 0.08376953
-1.53e-42 2.975e-42 -0.0740129 0.10786775 0.3871494 -0.24931747 -0.29346848 -0.073314644
6.6996e-41 1.5018e-41 5.8941e-41 -8.1731e-41 -0.2477867 0.2167917 -0.121218346 0.5862391
0.4339961 0.073358804 -0.5481585 0.28487122 9.132e-42 6.6651e-41 0.059231818 -0.1842843
-0.05599446 0.20752512 0.18974587 0.09483804 0.27951774 0.33624583 0.318436 -0.13151725
8.125e-41 6.661e-41

conv1.root f4 [1, 32]
00000000: 1e2a 8a3e f087 d03c 48bd a5be 2dd8 b93e
00000010: 0277 48be 1310 113e 12a2 c53c 21d3 f4bd
00000020: 7bf9 acbe 170b 8abe 3ac7 ebbd eaea 973e
00000030: eae4 ed3d 78c1 55be bf5d 963e 3010 a7bd
00000040: 1e2a c4bd ad91 33bd 107f 8d3e c03e a03c
00000050: 880d 41be aaf2 c3bd 5a7a abbe 5cf1 b73c
00000060: 96e3 c2be d7be 1bbd e708 4d3e 96c7 ae3e
00000070: 4930 53bd c473 393e 66b9 203e d907 103c
0.26985258 0.025455445 -0.32370973 0.36297742 -0.19576648 0.14166288 0.024125133 -0.11954332
-0.33784088 -0.26961586 -0.11512609 0.29671413 0.116159275 -0.20874584 0.29368398 -0.081573844
-0.09578346 -0.0438401 0.27636003 0.019561172 -0.18852818 -0.09567769 -0.33491784 0.022453956
-0.3806426 -0.038023796 0.20022927 0.34136647 -0.05155972 0.18110567 0.15695724 0.0087909335

conv1.bias f4 [32]
00000000: fb3a 36bd 51f9 24bd f680 cb3d efb4 af3c
00000010: 2f2e c33c 7d33 593c d892 acbd 8849 fbbc
00000020: 0006 49bd 4f1c de3d a9a7 d0bd 234b 95bc
00000030: fd42 0a3e f061 853d b106 e1bc 255b 18bd
00000040: 1c13 e93c 6035 8c3d d2a9 d3bd f574 613c
00000050: c2c3 1b3d c346 453d 1654 9c3d 94aa 1dbd
00000060: 4982 abbc 8c0c dfbd 1f4d 33bd 64d8 fabc
00000070: 1190 08bb 53ef 423d 457d d13d a0d1 8f3c
-0.044489842 -0.04027683 0.09936707 0.02144858 0.023825733 0.013256905 -0.08426446 -0.03067471
-0.049077988 0.10845243 -0.10188229 -0.018224305 0.13502117 0.06512821 -0.027469011 -0.037196297
0.028451495 0.06846118 -0.10335125 0.013760795 0.038028486 0.048163187 0.076332256 -0.038492754
-0.020936148 -0.10891065 -0.04377472 -0.030620761 -0.0020837823 0.04759152 0.102289714 0.017556012

conv2.g f4 [32, 1600]
00000000: 67ef 65bd bf6e 52bb 5f68 8f3d 53ba babd
00000010: 73cc 09be 21c7 49bd a528 a53c 6a4a 663d
00000020: c8d3 78bd 7a19 853b 0385 8abc de30 ce3c
00000030: 48c6 893c 3271 66bc 5445 f23c 50df 14be
00000040: 867f 993c e5dd e338 6f86 64bb c546 38b9
00000050: 68ec 20bd 87bd bd3d 59e4 ff38 ee62 d9bd
00000060: 1c69 413b 9a29 f13c 9a6d e03b a776 9cbd
00000070: 9f1d f8bb 2ebf b9ba c4a2 0d3d 12af 133d
00000080: 646f 04bd 03e6 4c3c 3c60 01be 268b 67bc
00000090: e465 ecbc 4c98 2cbd 4371 3bbd 91f7 25bd
000000a0: f632 403a 3987 963b a9c9 28bd bd67 49bd
000000b0: cbee 413c 4644 363d 96fd bf3c 992f 3bbc
000000c0: 7a47 f3bb b3fe 74bc af56 693c 56bf e3bc
000000d0: 1991 973c 1d64 2cbb d4de 513d ea6a 7ebb
000000e0: 2ec3 313c 8398 083c 14b5 b83b 52ef a13c
000000f0: 5268 b93c 6943 8239 5b37 0cbd 6fb1 5d3d
00000100: a9e1 6bbd 16b6 1e39 2fab a6bb 9fb7 593a
00000110: 5413 18bd 6b3c 953c e0de 833c 6a55 50bc
00000120: 724d 3fbd 8e47 0d3c 4ba8 243d 519f 533c
00000130: cc3c c1bb 57eb 0dbd 0f02 f93b 1e2b 64bb
00000140: 97aa 383c 32bf 573d 0fdc 803c 2caa 4cba
00000150: dd3e 34bd 7993 223c bb7b 843a feaa 94bd
00000160: ce9d 02bc d692 bbb9 b468 7439 272e 06bd
00000170: 0b5e db3a 128b 913c e6ab 63bc 73a1 503c
00000180: 2a6a 33bc 3db9 b43c 4514 65bb a1c5 ab3d
00000190: 011f 3cbc 2e54 b63c 7423 f5bc 8e98 d93b
000001a0: cc9d 1e3a 74a3 fcbb 26c3 70bd e24d 88bc
000001b0: a15c 2e3d a7da 583c e6ed cd3c e1a8 eb3c
000001c0: 8caf b9bc 4c4f 85bd 979f cd3c c6d8 103d
000001d0: 2da0 433b 98c8 c4bc 9c58 643c 52ee ddbc
000001e0: b74c 05bc 14cc bcbb 2390 1bbb 1085 dd3c
000001f0: 8ee8 b0b8 f2bb c43a 334b 84bd 3048 4a3b
00000200: e90a 0100 394c 0000 5d29 0080 b2b9 0000
00000210: 4c9e 0000 c707 0000 02a3 0000 0dbb 0000
00000220: 067b 0000 dca0 0080 f510 0080 6a13 0000
00000230: c21e 0080 b50b 0180 a227 0080 0153 0080
00000240: 2f2c 0080 43bc 0000 08ba 0080 8e27 0000
00000250: 5fc0 0000 dea4 0000 8a1f 0080 fb1f 0080
00000260: 920f 0080 fca4 0000 c007 0080 8819 0080
00000270: 2108 0000 8704 0080 3a16 0000 e7a2 0080
00000280: b01a 0000 eeb9 0080 01a3 0080 6e06 0000
00000290: 9220 0000 66b4 0000 95e1 0000 3bbc 0000
000002a0: c24a 0000 9ae2 0080 27e5 0080 01ba 0000
000002b0: ea06 0080 b44d 0000 7850 0000 9253 0080
000002c0: a00c 0000 8021 0080 eae4 0000 5ae5 0080
000002d0: fc08 0000 ea21 0080 3702 0000 9527 0000
000002e0: 31e5 0080 b1ba 0000 7150 0000 d90b 0180
000002f0: f7e1 0080 81a4 0080 8a09 0000 8720 0080
00000300: 4415 c9bc ed9a 81bc b336 5a3c afd6 e0bb
00000310: e412 fa3c f549 6c3c 6425 bcbc 028d d53a
00000320: 6d4e 05bd 9b43 50bb 11d4 7739 7a79 73bc
00000330: 7f54 17bb d5a2 363c dd69 8a3d c7f7 4d3c
00000340: 86ee b03a 35d6 b2bb 16cd 813c 7a4a d5b9
00000350: 5970 87bc 11c1 a43b 0f3d 3bba 1262 183d
00000360: 2885 2a3b 7362 fcbb 7551 1ebb 779d 8bbb
00000370: 33e3 07bb fc39 81b9 2ae3 ec3b 5d81 19bc
00000380: 01c2 c9bc e47d 543d 2e4c c838 7e3e 0fbc
00000390: 9e58 ec3c 384a c6bc 3224 823b 4c0f 2bbc
000003a0: cd88 4d3a 7ef0 a2bb 5ab7 a3bb 4fdf 403c
000003b0: 8bde 8dbd a2b7 c4ba c219 39bc 33da ffbc
000003c0: c83f 7e3a 48ba 37bc 1e0a 07bd c2c2 333d
000003d0: 1256 ddbc a878 653c 79a4 9a3c 91cf d5bb
000003e0: b01d 433b 49e3 b6bb c1f7 31bc b5be 443c
000003f0: 2b0a 4cbc 9090 d33a 5928 7d3c 0ddc 893c
-0.056136515 -0.0032109467 0.07002329 -0.0911757 -0.13456897 -0.04926217 0.020160982 0.05622331
-0.060748845 0.004061875 -0.016909128 0.025169786 0.01681818 -0.014065074 0.029574074 -0.14538312
0.018737566 0.000108655346 -0.0034870168 -0.00017573971 -0.039287955 0.09264665 0.000122018806 -0.106145725
0.0029512113 0.029438782 0.006849003 -0.07639819 -0.0075718905 -0.0014171356 0.034579054 0.036055632
-0.032332793 0.012506011 -0.12634367 -0.014132297 -0.028857179 -0.04213743 -0.04576231 -0.0405193
0.00073318125 0.0045937565 -0.041207943 -0.0491712 0.011836718 0.044498704 0.023436349 -0.011424922
-0.007424292 -0.014953303 0.014241858 -0.027801197 0.018501805 -0.002630479 0.051237896 -0.003882105
0.010849757 0.008337143 0.0056368206 0.019767437 0.022632752 0.00024845757 -0.03423248 0.054124292
-0.057588253 0.00015135886 -0.0050863246 0.0008305255 -0.037127808 0.018217286 0.016097486 -0.012715677
-0.046704717 0.008623017 0.04019956 0.012916402 -0.00589714 -0.034648266 0.0075991224 -0.003481574
0.011271141 0.052672572 0.015729932 -0.000780734 -0.044005264 0.0099228555 0.0010107675 -0.07259177
-0.007972194 -0.0003577682 0.00023308658 -0.032758858 0.0016736401 0.01776651 -0.013895964 0.012733805
-0.010950604 0.022060985 -0.0034954709 0.08387304 -0.011482001 0.022256937 -0.029924132 0.0066405004
0.0006050735 -0.007709915 -0.058779858 -0.0166387 0.042568807 0.0132357245 0.025137853 0.028767051
-0.022666715 -0.06509265 0.025100512 0.03536298 0.002985011 -0.024021432 0.013937142 -0.027091179
-0.008135966 -0.0057616327 -0.0023737035 0.027040988 -8.435651e-05 0.0015009625 -0.064596556 0.003086578
9.575e-41 2.7344e-41 -1.4838e-41 6.6615e-41 5.6786e-41 2.79e-42 5.8476e-41 6.7101e-41
4.4132e-41 -5.7705e-41 -6.083e-42 6.964e-42 -1.1034e-41 -9.6035e-41 -1.4218e-41 -2.9776e-41
-1.585e-41 6.7536e-41 -6.6735e-41 1.419e-41 6.901e-41 5.9143e-41 -1.1314e-41 -1.1472e-41
-5.586e-42 5.9185e-41 -2.78e-42 -9.159e-42 2.916e-42 -1.624e-42 7.973e-42 -5.8438e-41
9.574e-42 -6.6699e-41 -5.8475e-41 2.307e-42 1.1684e-41 6.4715e-41 8.0924e-41 6.7524e-41
2.6818e-41 -8.129e-41 -8.2204e-41 6.6726e-41 -2.48e-42 2.7875e-41 2.8867e-41 -2.998e-41
4.529e-42 -1.2018e-41 8.2119e-41 -8.2276e-41 3.223e-42 -1.2166e-41 7.95e-43 1.42e-41
-8.2218e-41 6.6972e-41 2.8857e-41 -9.6086e-41 -8.1061e-41 -5.9013e-41 3.422e-42 -1.1669e-41
-0.024546273 -0.015820945 0.013318705 -0.00686153 0.030526586 0.01442193 -0.022967048 0.0016292634
-0.032545496 -0.0031778577 0.00023634757 -0.014860505 -0.0023091135 0.011147221 0.06758473 0.012571282
0.001349882 -0.0054576644 0.015844863 -0.00040682015 -0.016533064 0.005027898 -0.00071425823 0.037202902
0.0026019309 -0.0077021657 -0.002415744 -0.0042607146 -0.0020734787 -0.00024648 0.0072292285 -0.0093692215
-0.024628641 0.05187787 9.550933e-05 -0.008742927 0.02885085 -0.024205312 0.0039716 -0.010440659
0.00078405143 -0.0049725166 -0.0049962224 0.011771991 -0.06927212 -0.001500834 -0.011297645 -0.031231975
0.0009698835 -0.0112138465 -0.032968633 0.043886907 -0.02701858 0.0140058175 0.018877255 -0.006524988
0.0029772334 -0.0055812937 -0.010862292 0.012008359 -0.012453596 0.0016141105 0.015451514 0.016828561

conv2.mu f4 [25, 2]
00000000: 8126 eb3e e087 6a3e 387e 123e 7338 953e
00000010: 6b0a 0000 4a09 0000 086d 233e 4af4 dfbd
00000020: 86bc 143f faad 1fbe c2a0 0000 c9c0 0000
00000030: 2d15 9e3e b964 bc3e 2f8e 103f 43e9 aa3d
00000040: 4233 863c de25 0b3f 9101 0000 3a27 0080
00000050: 8827 ff3e afe7 9dbd a05a 79bd 7b2a 6d3b
00000060: d215 3c3d c3be eb3e 61f6 413f 9bfe 8cbd
00000070: 6faf 843d c46f 443e cb00 153f b2ec 1e3f
00000080: 6e2c b23e 1be8 4d3e 3d31 943e ff0a 023f
00000090: 9709 543f fffe 2b3e 29cf 923e 7625 a23c
000000a0: 42b9 283f bc70 943e 2de3 863e f112 0d3f
000000b0: 9467 10bc f62a e43e 5fda fd3e 2ff4 e63e
000000c0: 00c3 ae3d ee77 5d3f
0.45927814 0.22903395 0.14305961 0.2914463 3.737e-42 3.332e-42 0.15959561 -0.10935266
0.58100164 -0.1559371 5.7669e-41 6.9158e-41 0.3087553 0.36795595 0.56466955 0.083452724
0.016381864 0.54354656 5.62e-43 -1.4072e-41 0.49834847 -0.07710206 -0.060877442 0.003618865
0.045919247 0.46043977 0.7576657 -0.068845 0.06478774 0.1918326 0.58204335 0.6207992
0.34799522 0.20108072 0.28943816 0.5079803 0.8282713 0.16796492 0.28673676 0.019793253
0.6590768 0.2899226 0.26345196 0.5510703 -0.008813757 0.44564027 0.49580666 0.45108172
0.08533287 0.86511123

conv2.sigma f4 [25, 2]
00000000: 44b9 363f 49c7 f63d 1d0f 6abe 4464 273e
00000010: e64d 0000 a24a 0080 a7a5 afbe 8119 44be
00000020: f5b2 f63e 8d93 d43d 4ea3 0000 3453 0080
00000030: b212 503e 930e c13d d87e 20bf 4487 423e
00000040: 297b 703e 2863 343e 090c 0180 5116 0080
00000050: d5cf 063f ca38 46be a435 9e3e 0de6 45be
00000060: a4f8 a53e 1632 f93d 7a59 c4be 94fb 5b3e
00000070: 7e4d 4cbe 88b6 82be 6df3 0a3e bc8b 7dbe
00000080: af70 0d3e da7a 57be 1f40 2e3f 3a11 c0bd
00000090: af58 3a3e 7f3d 9d3e 24e1 a33e 1c00 363e
000000a0: ac70 083e dae2 4abe d031 04be 01b0 633e
000000b0: 0922 38be 94d6 2fbf 6668 8dbd f00c ccbe
000000c0: 4c0a a63e 086b 9d3e
0.7137644 0.120497294 -0.22857328 0.16346842 2.7945e-41 -2.6773e-41 -0.3430607 -0.19150354
0.48183408 0.103797056 5.8583e-41 -2.9848e-41 0.20319632 0.09426608 -0.6269355 0.18996912
0.23484482 0.1761595 -9.6153e-41 -8.006e-42 0.52660877 -0.19357601 0.309003 -0.19326039
0.3241626 0.12167756 -0.38349515 0.21482688 -0.19951436 -0.25529885 0.13569422 -0.24760336
0.13812517 -0.21042958 0.6806659 -0.09378286 0.18197893 0.3071098 0.32007706 0.17773479
0.13324231 -0.198131 -0.12909627 0.22235109 -0.17981733 -0.68686795 -0.06904678 -0.3985362
0.3242973 0.3074572

conv2.root f4 [32, 64]
00000000: 2f33 713b e2f2 bb3d f6a8 f83c 0b82 dabb
00000010: 9a2a 5abe 9607 71be ae7b af3d 236d a43c
00000020: a4ee 2c3d 7e78 ffbd b0d5 e73d a4b2 d0bd
00000030: 09eb 033e 4c3a e1bd b29d febd 2d5c 79be
00000040: bf62 11bc d90a a63d 379d 3bbd 7dd8 923b
00000050: d1cd 84bd 41be c9bd 9a7c 3a3c 4ce4 9abe
00000060: a280 07be 7d34 1a3e 22c6 9b3d 9691 0f3e
00000070: ee47 5c3d 0189 f2bd eb4a 133e 0aee eb3d
00000080: bff9 fcbd 9061 e03d 2982 1dbe d7cf a6bd
00000090: 5a1c 873b d4b2 85bd deb4 023e fc0b 053d
000000a0: 7a40 353b 26d9 ce3c 1913 c8ba 9f11 b73c
000000b0: a538 f4bc bad5 163e 411b 3b3e a19d fbbd
000000c0: 692b 923d 9314 093d 94e2 2c3d 3dc1 fcbc
000000d0: 9b11 2e3e 57fa dbbd 8f22 64bd 9009 323e
000000e0: 3389 823d 5621 1e3e 3978 26be 3ec8 813d
000000f0: 8996 783b ad8b 3d3b 432e ebbd ad65 4ebd
00000100: 13c6 28be d9ba f8bd 942b bc3c 7ecb 443e
00000110: fa82 653d e682 073e 6283 fcbd eef6 373e
00000120: 96af 883d 89ff 413e e388 4cbe dd35 6fbd
00000130: f5ae a3bd 42c0 afbd f3ca 0e3e 93f6 11bd
00000140: ac8f 5c3e 09af 06be d076 183c edca 11ba
00000150: 3ecb 573e 1d87 7fbe 6a27 9fbc 407e 6ebe
00000160: a705 0f3e 07dd 563d 5dd8 873d d51e 453e
00000170: f83b ce3c 6398 fc3d 08e1 07be a557 01be
00000180: 9072 363e 9a7e d7bc dade 063c d56d 81bd
00000190: b232 67be 09c7 71bd 6245 713d 1894 883c
000001a0: 7f6e c8bb e578 08bc 1127 3abe fa42 b0bd
000001b0: 63d2 91bd 0d1b 7fbe 1700 483e 45a3 253e
000001c0: 311a 5a3e ea09 14be cd8d 19bd fc77 d1bd
000001d0: 3805 493e d24c 0c3d 3cfe 953d b2e5 583e
000001e0: 7809 5fbe 5de2 67bd a670 923e dafc e1bc
000001f0: 8b12 12bd 97e8 acbb 541b b63c e491 21be
00000200: 2cd1 ce3c 6375 a4bd 6839 053e 61dc ad3c
00000210: 57cd 46bd 08e4 823d f0c9 183d 2bf7 6cbd
00000220: a393 133e dd1a a2bd bdf4 eb3c a5b1 0f3e
00000230: 15ad 3fbd ceda 9bbc b7e1 b6bd df46 29bd
00000240: 2c0f a2bc fb91 213d b952 06be 49d4 943a
00000250: b56f 4fbd e1aa 8b3e 27dd dbbc 7b88 16be
00000260: ca0f bdbd 7f7b 5bbd 9614 1cbd c5d6 1abd
00000270: 3bea 843b 499d 323d 57c3 283e b1b2 d13c
00000280: 3f52 c4bd 6ea1 f33d 55ea 1abe 3c32 2abe
00000290: 7935 13be d9c9 c1bc 64ad b93d 041d 3c3d
000002a0: 02fe 76bb 45a9 453d 2c9b fc3d 11a2 1ebe
000002b0: 28ae 273e 4fcb 15be db76 0f3c 6841 03bb
000002c0: 03e9 473e 3a76 023e 5950 9f3d 879f 0ebe
000002d0: b19a 603d e421 2e3e 41c7 cfbd b447 443e
000002e0: e2a5 dcbd ef79 6c3d cdc5 19be c951 473e
000002f0: 75c6 2abd 9772 55bb 1256 80bd a856 72bd
00000300: e426 4ebd 417c c5bd 1dc8 8e3c 551b 89bd
00000310: 8227 dc3b a1ed 4e3d 95e6 b73d f01c 693e
00000320: dd54 d23d 9dd6 cb3c 2e1c fbbd be14 df3d
00000330: 0706 aabd 9962 51be 4db9 133d 4bdc 68bc
00000340: 3f39 f3bb fcca c8bd 621e 7f3c 188c ab3b
00000350: 560f 7cbd 8eb3 c7bc ad16 a83b a446 c7bd
00000360: 0b9f 643d ff32 01bd 1f5f 023b f91c 913d
00000370: 04e3 2ebc 6fc4 94bd c509 82be eb5b 8a3c
00000380: 592c b93d b5cb 56bd cd8e cc3d 4a70 31bc
00000390: 2000 00be 5410 63bd 1cc9 983d e7cb 85bd
000003a0: ebad d33a a451 3f3e 77a2 d33d aae1 683b
000003b0: 2a53 9dbd 8167 71bd cc69 9fbb c156 b93d
000003c0: 90bc 383d ff0f 083d c70a 2d3d 60fc 81bc
000003d0: e80e debd 3057 cd3c 8b3b 4abe 073c b43c
000003e0: 261f 363e 8bbb 173d 4936 2b3e 8a22 8cbc
000003f0: da9b 393d 7b72 7c3b 7f14 c33c ee26 bcbd
0.003680419 0.091771856 0.030354004 -0.0066683344 -0.21305314 -0.2353805 0.08568512 0.020071572
0.042219773 -0.12474154 0.113200545 -0.10190323 0.12882628 -0.10997447 -0.12432422 -0.24351569
-0.008873641 0.08107538 -0.04580423 0.004481374 -0.06484569 -0.09850741 0.011382246 -0.30252302
-0.13232663 0.15059085 0.0760615 0.1402038 0.053779535 -0.11842538 0.14384048 0.11520012
-0.12352323 0.109561086 -0.15381683 -0.08145111 0.004123253 -0.065282494 0.12764308 0.032482132
0.002765684 0.025250029 -0.0015264481 0.02234727 -0.029812166 0.14729968 0.18272115 -0.12285925
0.07137186 0.033466887 0.04220827 -0.030853862 0.16998903 -0.10741108 -0.05569702 0.1738646
0.06373825 0.15442404 -0.16256799 0.06337021 0.0037931523 0.0028922365 -0.11483433 -0.050389934
-0.1648181 -0.12145013 0.022969998 0.19218251 0.056033112 0.13233528 -0.12329747 0.1796529
0.06674115 0.18945135 -0.19974093 -0.058400977 -0.07992355 -0.08581592 0.13944606 -0.035635542
0.21539181 -0.13152708 0.009305671 -0.00055615493 0.21073624 -0.24953885 -0.019427974 -0.23290348
0.13967 0.05245688 0.06633065 0.19250043 0.02517508 0.12333753 -0.13269436 -0.1263109
0.1781714 -0.026305486 0.008231843 -0.06319777 -0.22577932 -0.059027705 0.05890406 0.01667218
-0.006116688 -0.008329605 -0.18178965 -0.08606525 -0.07120206 -0.24912663 0.19531284 0.16175564
0.21299054 -0.14456907 -0.037488747 -0.10227963 0.19630897 0.03425295 0.07323882 0.21181372
-0.21780956 -0.05661236 0.2860157 -0.02758639 -0.035662215 -0.0052767503 0.022229828 -0.15778309
0.025246225 -0.08030202 0.1301018 0.021223249 -0.04853567 0.0639115 0.037301958 -0.057852905
0.14411788 -0.0791528 0.028803224 0.1403261 -0.046795923 -0.019025233 -0.089297704 -0.041327354
-0.019782625 0.03944586 -0.13117494 0.001135477 -0.05064364 0.27278808 -0.026838852 -0.147005
-0.09231527 -0.053584572 -0.03810557 -0.037802476 0.0040562428 0.04360703 0.16480766 0.025597902
-0.09586 0.11896025 -0.15128453 -0.16620725 -0.14375867 -0.023655819 0.09066275 0.04592611
-0.0037688022 0.04825713 0.12334284 -0.15491511 0.16375029 -0.14628337 0.008756365 -0.0020027999
0.1952248 0.12740412 0.07778997 -0.13928042 0.054835025 0.17005116 -0.101454265 0.19167978
-0.10773827 0.057733472 -0.15016861 0.19464792 -0.04169317 -0.0032569522 -0.062664166 -0.059164673
-0.050330058 -0.0964284 0.017429406 -0.06694666 0.006718577 0.05051959 0.08979527 0.22764945
0.10270093 0.024882609 -0.12261234 0.10892628 -0.08301931 -0.20447768 0.03606539 -0.014212678
-0.0074225958 -0.09804341 0.015571209 0.0052352063 -0.061538063 -0.02437761 0.0051296563 -0.097302705
0.055815738 -0.031542774 0.0019893122 0.07085604 -0.010674242 -0.07264029 -0.2539808 0.016889533
0.09041662 -0.052440364 0.099881746 -0.010829994 -0.12500048 -0.055435494 0.074602336 -0.06533032
0.0016149854 0.18683487 0.10333722 0.0035534897 -0.07681878 -0.0589366 -0.004864907 0.0904975
0.045101702 0.03321838 0.042246606 -0.015867412 -0.10842687 0.025065988 -0.19749276 0.02200128
0.1778532 0.03704409 0.16719927 -0.017106313 0.045314647 0.0038520384 0.023813484 -0.09187113

conv2.bias f4 [64]
00000000: 727f c9bc 2bb4 623d b712 0bbd 7f6e 1fbc
00000010: 526b 0bbd fb57 9ebd eff8 d4bc 83fe 8d3d
00000020: 4757 ec3c 6354 e13c 566e 9cbd cdcc 91bd
00000030: 6ef6 da3b 09af 91bd 49cb 16bc 5db7 d1bc
00000040: 1a06 a4bc b11a a7bc e2d6 8cbc da08 acbb
00000050: eabd 4fbd 0f1b dbba dc3c 083d c9e1 89bd
00000060: ce23 523d 8ee9 99bd f05d 02bc c4c5 75bd
00000070: bdfb 993c beda c0bc ba81 57bd cde1 353d
00000080: 2faf 0d3d 783e a9bb 3352 cc3b b72c 683b
00000090: 7528 93bd 3a91 a43b d027 2bbc 6825 9cbc
000000a0: 2af2 713c ed98 23bd 827e e83b 0ae5 07bc
000000b0: ec30 6fbd bab4 de3c e3ef cc3b a7a3 83bd
000000c0: faff 20bd 5d24 bbbc a38e 82bc 7dda c8bc
000000d0: 9463 4bbd 5eed bb3c 7f14 8cbd f316 4fbd
000000e0: 224d 9f3c f5b9 c8bb 9758 89bd 0aa6 b3bb
000000f0: 3dc1 f13c c00e 183c 6180 5b3d 7eb1 0cbc
-0.024596903 0.055347603 -0.033953395 -0.009730934 -0.034037896 -0.07731625 -0.025997607 0.0693331
0.02885021 0.027506059 -0.076382324 -0.07119141 0.0066822087 -0.071134634 -0.00920374 -0.02560013
-0.02002244 -0.02039847 -0.017192308 -0.0052500786 -0.050718226 -0.0016716438 0.033261165 -0.06732518
0.051303677 -0.0751525 -0.007956967 -0.060003057 0.018796796 -0.023541804 -0.05261395 0.044404794
0.034590896 -0.0051649176 0.006235385 0.0035427043 -0.07185451 0.005022195 -0.010446504 -0.019060805
0.014767209 -0.039940763 0.007095159 -0.008294353 -0.058396265 0.027185787 0.0062541827 -0.064276986
-0.03930662 -0.022844488 -0.015937155 -0.024518246 -0.049655512 0.022940334 -0.06839847 -0.050558995
0.01944596 -0.0061256834 -0.0670635 -0.00548244 0.029511089 0.00928086 0.05358923 -0.008587239

conv3.g f4 [64, 1600]
00000000: a633 de3a c0ef 43bc 1ede 86ba 143e 9aba
00000010: 1a7c a8bd 3f22 9abc d912 45ba a06c 703d
00000020: a2ac 32bd af84 933d 390a 62bc 1050 1abc
00000030: 6fc8 873d 123c ebbc a581 e4bd 1af7 803c
00000040: 44b8 f03c fd6b 993d 067e ac3c fc86 c5bc
00000050: 737b 0a3c 59c6 afbd 0572 3ebd 4990 483d
00000060: 3e34 b53b 67fb e5bc ca5c 49bd e919 1dba
00000070: de6f 493d c7f0 ecbb 96fd 0ebc 2939 523d
00000080: b96e 7abc 966f 2d3d c969 203a baec df3d
00000090: 2cd7 3bb9 bf1d 683d 8d06 6aba 7d11 cabc
000000a0: b33e 9e3c 77c9 5abd 6906 06bd 70cf 593d
000000b0: 743a b23c 6ab4 4abd 0a10 abbc 5369 cfba
000000c0: 7711 483d bd14 66bc 829f 2d3c ffc3 6abc
000000d0: 5af0 4e3d 4165 393c 255d dfbb 94e5 093c
000000e0: e64c 89b8 fc70 6c3a 5c48 2d3c 3147 3d3c
000000f0: f139 90bd 48fe 97ba 7817 d1ba 0de9 dfbd
00000100: f5d8 d83a c999 2bbc 1200 8dba e26d 91ba
00000110: 1747 dcbd 079c 98bc f86c 47ba a287 393d
00000120: 817c 6bbd ba27 913d a738 f0bb 8f56 843c
00000130: 9be9 873d cb1a 9fbc c4a3 02be 510e d43c
00000140: 46a6 143d a39a 873d 0e69 f43b beeb e1bc
00000150: f527 7a3b 36dc c3bd 1b33 5fbd 3ea6 7c3d
00000160: 7fd4 d53b a88c 08bd 7e4c 5fbd c4ae b5ba
00000170: 68d4 213d b67d 58bc eed7 20bc f9f8 703d
00000180: 9fa0 ccbc 44f5 c43c 2d25 f739 99e1 083e
00000190: b899 40b9 a081 5f3d 77b2 78ba dee5 33bd
000001a0: c37c 883c 53db 73bd 7993 16bd 5e3f 733d
000001b0: 3dfe f43c c2ff a3bd 34fc 00bd 2963 ccba
000001c0: e43f 573d 3ec4 33bd fe58 843c c2e1 84bc
000001d0: 1a0a 7e3d b4f1 2a3c f214 e6bb b111 9a3c
000001e0: 83c5 7fb8 e818 6a3a 588a 613c ce14 593c
000001f0: f7a3 afbd a560 94ba 3516 d3ba 73c7 08be
00000200: 12b7 d73a 1c5e 52bc e6d5 8dba 1627 90ba
00000210: a0c5 cfbd dce2 aebc 6a76 4aba 5589 4e3d
00000220: 75e5 58bd 65d0 b03d 4cc5 f5bc c65d 99bc
00000230: 40ea a03d 657b 0abd fb9a 02be 42eb af3c
00000240: cf81 123d 022d 9f3d a70f 9f3c 2963 fabc
00000250: 13f0 803b 3106 c1bd 5604 48bd fdfd 703d
00000260: 50bc dbbb 985d 04bd 773d 6ebd 813a cf39
00000270: 1118 853d 30cb 11bd 0b81 c3bb 4bb2 793d
00000280: e60b 7abc 18eb 383d ae3c ea39 342b 013e
00000290: 5d14 3bb9 405c 6f3d b689 73ba 4f75 1bbd
000002a0: c060 643c 473d 58bd 4712 04bd 28a2 613d
000002b0: 4412 bb3c 5a4c 84bd de3e cdbc 3c19 cbba
000002c0: 16d5 4f3d ac1e 60bc a737 553c df05 76bc
000002d0: a0b9 743d a23f 4b3c d47a c7bb f97f 453c
000002e0: 037d 57b8 00f1 683a bce9 383c 079a 4f3c
000002f0: f1df 9dbd 4a51 94ba be0d d2ba a46e f6bd
00000300: e95b 703a 0308 42bb 99a3 1fba 303c 363a
00000310: 817a cebc b596 0ebc 50c9 7fba d460 eebc
00000320: 1316 85bd 4867 833c 0e75 5abc 2d40 623c
00000330: 3bf8 3ebc e9d9 23bc 8b32 1fbd 73d1 603c
00000340: 770d 713c e050 b7bc e99e 4cbc 5ae8 2abc
00000350: 8341 c5b9 8e1a 56bc 18ee 50bb 9ef1 903c
00000360: ac38 22bc da7b 40bc 606e 8abc 6ba2 973b
00000370: a4f9 d63b 4d4a 1e3c 906b 723b 3d91 da3c
00000380: 5ca4 cc3a a22c 28bc 154a 83ba 9cf9 273d
00000390: 483d 1e39 29c1 ddbb fdb6 8cba 58b8 87bc
000003a0: 75a3 f13a 4172 14bc e1dd 923a 3e24 853c
000003b0: 130d 023c debf 78bc abad 43bc dc0c c839
000003c0: d079 113c 26fe 87bc cdbb 84bc 5faa 83b9
000003d0: b875 9d3c 8e98 b23a 3f87 ab3a 3bc1 343c
000003e0: 76e1 81ba 447d bab7 db5b 3f3b 104b 413b
000003f0: 1732 0abd 7c52 3fba 67a5 b0ba ebbd 31bd
0.0016952648 -0.011959016 -0.0010289585 -0.0011767768 -0.082267955 -0.018815158 -0.0007517762 0.058697343
-0.043621667 0.07203042 -0.013796383 -0.009418502 0.066300265 -0.028715167 -0.1115754 0.015742827
0.02938474 0.074913 0.021056186 -0.024112217 0.008452284 -0.08582754 -0.046495456 0.048965726
0.0055299094 -0.02807398 -0.049160756 -0.00059929356 0.04917895 -0.0072308513 -0.008727452 0.051324043
-0.015285187 0.042342745 0.0006119279 0.10933824 -0.00017913867 0.056668993 -0.0008927368 -0.024666542
0.019317007 -0.053414788 -0.032720957 0.053176343 0.021756388 -0.049488463 -0.020881671 -0.0015824236
0.04884478 -0.01404303 0.010597112 -0.014328956 0.050522186 0.011315645 -0.0068165236 0.008416552
-6.5469925e-05 0.00090195215 0.010576334 0.011552618 -0.070423014 -0.0011596167 -0.0015952429 -0.10933123
0.001654415 -0.010473677 -0.0010757467 -0.001109537 -0.10755747 -0.018629087 -0.0007607485 0.045295365
-0.057491783 0.07087655 -0.0073309722 0.016154556 0.066363536 -0.019421956 -0.12757784 0.025885733
0.036291383 0.066212915 0.0074588126 -0.027578231 0.003817079 -0.09563486 -0.054492097 0.06168198
0.0065255756 -0.033337265 -0.054516308 -0.0013861288 0.039509207 -0.013213566 -0.009817107 0.05883119
-0.024978934 0.024042733 0.0004713921 0.13367309 -0.00018367812 0.05456698 -0.00094870426 -0.04392039
0.016661054 -0.059535336 -0.036761735 0.059386604 0.029906387 -0.08007766 -0.03149052 -0.0015593517
0.052551165 -0.043888323 0.016155716 -0.016220931 0.062021352 0.010433603 -0.00702154 0.018807264
-6.0980685e-05 0.0008930103 0.013765894 0.013249589 -0.08576196 -0.0011320306 -0.0016104641 -0.13357334
0.0016457757 -0.01283982 -0.0010821193 -0.0010997977 -0.10145116 -0.02134841 -0.00077233335 0.05042394
-0.052953202 0.08633498 -0.030001305 -0.018721472 0.0785718 -0.033809084 -0.12754433 0.021474484
0.035768326 0.077722564 0.019416643 -0.030564861 0.003934869 -0.09425009 -0.04883226 0.058835972
-0.006705798 -0.03231582 -0.058164086 0.00039525706 0.06498731 -0.035594165 -0.005966311 0.06096105
-0.015261626 0.045146078 0.00044677168 0.12614137 -0.00017841296 0.058437586 -0.0009290235 -0.03795367
0.013939083 -0.052792814 -0.032243993 0.055086285 0.022835858 -0.064598754 -0.025054391 -0.0015495191
0.050740324 -0.013679188 0.013013757 -0.015016048 0.05974734 0.012405308 -0.0060876403 0.012054437
-5.137642e-05 0.00088860095 0.011286195 0.012671 -0.07708729 -0.001131573 -0.0016025824 -0.12032822
0.0009168969 -0.0029606826 -0.00060897466 0.00069517177 -0.025204899 -0.008702924 -0.0009757476 -0.029098906
-0.06498351 0.01604046 -0.013333572 0.013809246 -0.011655862 -0.010000684 -0.03886656 0.013721812
0.014712683 -0.022377431 -0.012489059 -0.0104313735 -0.00037623578 -0.013067855 -0.0031880196 0.017693337
-0.009901207 -0.0117482785 -0.016898334 0.004627516 0.006560521 0.009661269 0.0036990382 0.026680583
0.0015612948 -0.010264548 -0.0010016585 0.04100953 0.00015090883 -0.0067674113 -0.0010735687 -0.016567394
0.0018435555 -0.009060443 0.0011205041 0.016252633 0.007937687 -0.015182463 -0.011943261 0.00038156554
0.00887914 -0.01660068 -0.016202832 -0.00025113203 0.019221172 0.0013625787 0.0013086571 0.011032398
-0.0009909112 -2.223126e-05 0.0029199037 0.0029494204 -0.033739176 -0.0007298363 -0.0013477028 -0.04339401

conv3.mu f4 [25, 2]
00000000: f913 f83e 90f1 063f c8f8 fa3e ceda 033f
00000010: 73d3 fc3e fd7d 0a3f 8b05 4d3e e431 053e
00000020: bdbe fc3e 12f8 093f 7528 0080 6350 0080
00000030: e4ba f13e d84f e83e 5303 f73e 7793 003f
00000040: 2094 0080 30ba 0000 e816 fb3e 2d93 093f
00000050: 27c4 f33e 81a1 fd3e 9046 f73e ad19 053f
00000060: 9afa f43e 4256 f53e daa8 fb3e a0bd 053f
00000070: 030c fc3e af0d 0a3f 505c f73e 9394 013f
00000080: 030a 0180 acc0 0000 8e7c eb3e c2ad c93e
00000090: 01c7 cc3e 6b1b ab3e e5e3 0000 f6a4 0080
000000a0: 213b f63e 7ba6 fc3e be47 f63e e0f6 fa3e
000000b0: 3f53 fd3e b5a7 0a3f c5a7 583e d3a6 dd3d
000000c0: 940a 0100 60a4 0080
0.48452738 0.52712345 0.4901793 0.51505744 0.49380073 0.5409849 0.20021646 0.13007313
0.49364272 0.5389415 -1.4513e-41 -2.8837e-41 0.472129 0.45373416 0.48244724 0.50225013
-5.3137e-41 6.6791e-41 0.49040914 0.537402 0.4761059 0.4953728 0.48296022 0.51992303
0.47847444 0.47917372 0.4915226 0.5224247 0.49227914 0.5392713 0.48312616 0.5061733
-9.5427e-41 6.9118e-41 0.45993465 0.3939038 0.39995578 0.33419356 8.1753e-41 -5.9177e-41
0.48091987 0.49345765 0.4810161 0.49016476 0.49477574 0.5416215 0.21157749 0.10822835
9.563e-41 -5.8967e-41

conv3.sigma f4 [25, 2]
00000000: a9d1 de3e b843 ea3e 44e5 dfbe cd9c 09bf
00000010: ff33 f43e 771e 093f 424f 593e 9827 443e
00000020: b410 f1be d9d7 063f 64a3 0080 5215 0080
00000030: 2b69 dabe 4974 063f 9eb9 ec3e 75ea 09bf
00000040: d4bb 0080 7317 0080 ce42 f13e 5825 053f
00000050: f12e dabe 6b28 063f 9565 eebe 9a8c 06bf
00000060: c421 e7be f522 0c3f 7e6a ba3e 78ab c73e
00000070: 4d3b f23e 9f7c 06bf 3ea3 e0be d11d 073f
00000080: 58ba 0000 2ebb 0000 63f3 c9be bcee fbbe
00000090: 566b b03e 6d51 b9be c51e 0000 310e 0000
000000a0: 9d3e e83e 4105 0abf d2da e93e d4c1 0cbf
000000b0: 0e29 f23e 5830 083f b120 87be 335a 2ebe
000000c0: 37e6 0000 f396 0000
0.43519333 0.4575479 -0.43729603 -0.53754884 0.4769592 0.5356211 0.2122164 0.19155729
-0.47083056 0.5267311 -5.8614e-41 -7.648e-42 -0.42658362 0.5252119 0.46235365 -0.5387338
-6.738e-41 -8.412e-42 0.4712128 0.5201011 -0.42613938 0.5240542 -0.46561876 -0.5255829
-0.4514295 0.5474084 0.36409372 0.38998008 0.47310868 -0.52533907 -0.43874544 0.5277987
6.6848e-41 6.7147e-41 -0.39443502 -0.49205577 0.3445689 -0.36194935 1.1038e-41 5.091e-42
0.4536027 -0.53914267 0.4567476 -0.5498326 0.47296947 0.53198767 -0.2639213 -0.17026596
8.2586e-41 5.415e-41

conv3.root f4 [64, 64]
00000000: a01a c73a 7d4c 2abc 7bfa 9bba cdc8 53ba
00000010: f8b0 febd d23c dbbc 2091 6dba 2ec3 183d
00000020: 7818 8fbd df27 c43d 0190 53bd 3fe7 9e3c
00000030: 863a 7e3d 128a 5dbc b84f 0fbe 01e6 ae3c
00000040: 53e2 cc3c 5b37 b53d 659e b1bb ede1 fabc
00000050: 1b6e 2dba 5c1b c1bd c931 88bd 9261 b33d
00000060: 0c89 bebc 3e87 2fbd 65e5 a4bd 9bb2 3a3a
00000070: 05f8 403d b961 6abd 8708 df39 6283 be3d
00000080: e0b4 e0bb d4ad 1b3d c709 b5b9 9958 133e
00000090: 2e28 e9b8 1b30 6d3d 449b 9aba d91d 81bd
000000a0: 387d 2a3c b089 4ebd 2fae d6bc b453 503d
000000b0: a700 cc3c 0fdf 9bbd ae71 1ebd 1cca a5ba
000000c0: 37ac 3b3d ec46 d3bc d44b 973b 4abb 0abc
000000d0: a313 9d3d d335 353c eb26 9e3b 19ad bd3c
000000e0: 169e 2eb8 e744 5e3a 1e20 013c 185f 8c3c
000000f0: 9d21 babd 4c05 8dba 44ca e2ba d183 f1bd
00000100: 6b8e 8bba 9c8a 393c 686c 7eba f4a2 b93a
00000110: edcc 61bc b98d 603a 00b6 e33a 58fb 91bc
00000120: 76ac babd 8939 8abd 6571 8037 6ed1 283d
00000130: b1dc 1a3d c0b5 fa3a f603 bc3c dd8d a13c
00000140: c617 1ebc a666 91bd 4b9b 87bd 3ea7 3bba
00000150: 58b6 cabb 9a8b 963d 384d 223c c830 303d
00000160: ffb9 b8bc 0e39 78bc 3c7e bc3b 39fa 673c
00000170: a0a7 97bd 958e 813d bd45 5d3c 8b01 2a3d
00000180: 9488 fd3b 59df ccbc 13e6 c739 5243 12bd
00000190: 54a4 fe3a 4889 c8bb d28d 143b 0786 ba3c
000001a0: a19e df3c 8536 933c c616 703d 4479 a8bb
000001b0: e4ec bfbb da2a 38bd dd17 a83b a79d 7e3a
000001c0: 61e7 06bd cced cebc 098a 2d3c d307 f43c
000001d0: 0403 26bb 469f 103b b20e 183d 2e46 963c
000001e0: 75e2 2f3a 9652 06bb 8b64 c9b9 9366 903a
000001f0: 81a3 3fbd 568d 1e3b 402a 1e3b 3e5e 9ebc
00000200: 5420 7a3a 5431 24bc 5613 f93a 0037 b2ba
00000210: a463 db3a 860a 97bb 668e 96ba 2209 72bd
00000220: 2201 bd3d f125 033d 28d8 5dba 86f3 fdbc
00000230: 11b1 61bd 83ee 993d 8297 e33b a9a6 0abd
00000240: 2b4e d6bc bc86 a43d 5dca 853d 972d 453c
00000250: b8fe 913b 0d04 1cbd 38f4 ecbc e295 cebd
00000260: a99a 003d c48e d23c d8fc 72bc 148a 44bc
00000270: f953 4f3d d128 863c a717 d1bb 5d28 07bd
00000280: a628 343a 5c4f 3b3c bc72 7b39 f7a4 e7bb
00000290: a25e 3eba 3cdf b2bd 8365 9ab7 80a4 2bbc
000002a0: a2a4 44bd ed19 24bc 8c84 32bd e7f9 1b3c
000002b0: 789b 3abb 74de 943c cdb1 113c 4664 1a3a
000002c0: a541 893c e564 703c 5c77 7fbd be30 f8bc
000002d0: 67e1 bb3c ffcf d5bb 59a3 02bd 3dfb 22bd
000002e0: 1ece 87ba 02bc 113a 237c 21bc 4c1c 2dbb
000002f0: f618 9b3d bf90 eeba df77 f5b9 0d8e 033b
00000300: 53e6 0ebb 2a7c f03b 1a37 45bb 6384 b03a
00000310: 6aa0 94bc e13e 223c a578 273b fbed aa3d
00000320: b20d f53c 6f1b 2ebc f6ec 3d3d 329e 923d
00000330: c89b d1bd 0f7a 42bc 29ec 18bd fc6b 8d3b
00000340: 8c8f 7ebc f9ee 253c 207f 0bbd 0e3d 643b
00000350: a166 ddbb 08d6 aabc b2ac e4bc 9050 7b3d
00000360: 2e80 1d3d a21d cab9 bb21 4fbc fe2c 1ebc
00000370: 3213 2bbd 9d15 95bd 5c8a 88bc 2817 ccbc
00000380: 0b8b 98bc 16a7 0e3c 410d a23a 9ec0 12bd
00000390: 3494 3a3a 95e8 ec3d 6c76 6eb9 d59a f2bc
000003a0: 9707 9fbc 1c41 f63a c5f5 1bbd 22ef 57bd
000003b0: 20a8 723c b18a 9dbd 6bcd 27bd 2d40 8fba
000003c0: 9429 063d c0ad 28bd 4dc2 3e3d da5f 31bc
000003d0: ef30 243c 1747 ffbb 03e5 09bd 0374 993c
000003e0: ddb0 0d3b 0bd4 2dbb 4935 1b3d 8089 883b
000003f0: 0a6d 8fbb f51f 1e3b 474c af3a 11b3 92bc
0.001519043 -0.010394213 -0.001190021 -0.0008078933 -0.12436098 -0.0267624 -0.0009062458 0.037295513
-0.06987089 0.09577917 -0.051651005 0.019397376 0.06206753 -0.013521688 -0.13995254 0.021349909
0.025010264 0.08848449 -0.0054204934 -0.030625308 -0.0006615833 -0.094290465 -0.06650121 0.087588444
-0.023258708 -0.042853586 -0.08051566 0.0007121951 0.04711153 -0.0572221 0.00042540228 0.09302403
-0.0068574995 0.038007572 -0.00034530295 0.14389266 -0.0001111779 0.057907205 -0.001179554 -0.06304521
0.010405831 -0.050424278 -0.026206104 0.050861076 0.024902655 -0.076109044 -0.038682632 -0.0012648734
0.045818534 -0.025790654 0.0046171937 -0.008467505 0.07669761 0.011060196 0.0048264167 0.023153828
-4.163206e-05 0.0008478895 0.0078811925 0.017135188 -0.090884425 -0.0010759025 -0.0017302711 -0.1179272
-0.0010647302 0.011324551 -0.0009705485 0.0014162944 -0.013781768 0.000856604 0.0017372966 -0.017820045
-0.091149256 -0.06749255 1.5311593e-05 0.041215353 0.037808124 0.0019127652 0.022951107 0.019720966
-0.009649223 -0.07099657 -0.06621417 -0.0007158405 -0.006186288 0.07350846 0.009906106 0.04301527
-0.022549627 -0.015150322 0.005752353 0.014158779 -0.07405019 0.063260235 0.013505396 0.041505378
0.0077372286 -0.025008844 0.00038127656 -0.035708733 0.0019427636 -0.006119881 0.002266754 0.022768987
0.02729732 0.017970333 0.05861547 -0.005141409 -0.005857097 -0.04496274 0.005129798 0.0009712823
-0.032935504 -0.025259875 0.010591992 0.029788887 -0.0025331387 0.002206759 0.03712339 0.018344011
0.0006709465 -0.0020496002 -0.00038412618 0.0011016898 -0.04678679 0.002419313 0.002413407 -0.019332048
0.00095415604 -0.010021526 0.0019002955 -0.0013596714 0.0016738069 -0.004609409 -0.001148653 -0.05909074
0.09228732 0.032018606 -0.0008462691 -0.03099991 -0.055100504 0.075161956 0.0069455514 -0.033850346
-0.02616032 0.08033511 0.06532738 0.012034795 0.0044554137 -0.0380898 -0.028925046 -0.10087182
0.031397495 0.025702842 -0.01483079 -0.011995811 0.050617192 0.016376885 -0.0063809934 -0.032997478
0.0006872512 0.011432495 0.00023979967 -0.007069226 -0.0007262026 -0.08733985 -1.84055e-05 -0.010476232
-0.04800857 -0.010015947 -0.043583438 0.009520031 -0.0028474014 0.01817248 0.008892489 0.00058895757
0.016754935 0.014672493 -0.06236969 -0.03029668 0.022934629 -0.006525039 -0.03189406 -0.03979038
-0.001036111 0.00055593264 -0.009856257 -0.0026414571 0.0757312 -0.0018201097 -0.00046819352 0.0020073683
-0.0021804764 0.0073390203 -0.0030092658 0.0013467189 -0.018142898 0.009902687 0.0025554087 0.083461724
0.029913757 -0.010626658 0.04636856 0.071590796 -0.10234791 -0.011869921 -0.037334595 0.0043158513
-0.015537154 0.010127776 -0.034056783 0.003482643 -0.006756619 -0.020854011 -0.027914379 0.061356127
0.03845232 -0.0003855052 -0.012642319 -0.009654282 -0.041766353 -0.07279513 -0.016667537 -0.024913386
-0.018620988 0.008706829 0.0012363569 -0.035828225 0.0007117421 0.11567799 -0.00022741564 -0.029614845
-0.019412799 0.0018787715 -0.03807618 -0.05271829 0.014810592 -0.07692469 -0.040967386 -0.001092916
0.032754496 -0.041181326 0.04657202 -0.010826075 0.010021432 -0.007790457 -0.03366567 0.018732077
0.0021620311 -0.0026524093 0.037892614 0.004166782 -0.004377012 0.0024127935 0.0013374173 -0.017907651

conv3.bias f4 [64]
00000000: 31e6 c0b9 2813 4439 53d5 c7ba 0b53 253b
00000010: 3b51 743d 16a8 14bc 82af da38 1c74 313c
00000020: 9593 82bc 3d42 3dbc ec0b c23d 65f8 1c3d
00000030: 8dbc cebd d947 95bd e830 6a3d 397b 5bbb
00000040: 1dbf 5f3c 4fc3 6d3c dff8 163c 4f03 b13d
00000050: 5e52 1c3d b275 883d 03e2 33bc 7911 ed39
00000060: 34b8 a83d f4b1 9a3d 5ca5 0b3d 81e4 4b3d
00000070: 0f46 0ebd 7e20 bb3c 40f4 7e3b 084a 3ebd
00000080: 45ee 953d e3e9 833a 258a adba 6660 06be
00000090: c9d0 5539 075c 9fbd 8226 46bb f2e0 f93d
000000a0: 1a29 e4bc d2e1 f2bc e396 863d 7212 123d
000000b0: d012 bfbc 238a 96bc da79 ab3c 024e caba
000000c0: e579 7f3c dfd3 783d 6d67 f9bc d3d4 fa3c
000000d0: 9df6 89bc 3028 e03c 9f78 03bd 3040 3339
000000e0: b5e1 8039 b553 ecb9 e56a 0e3d f456 fbbc
000000f0: f626 873c 9a7d bc3a cfd6 6abb ea25 86bc
-0.000367926 0.00018699153 -0.0015246071 0.00252265 0.05964778 -0.009073278 0.00010427741 0.010830905
-0.015939513 -0.011551437 0.0947493 0.038322825 -0.10094557 -0.072890945 0.057175547 -0.0033490194
0.013656405 0.014511897 0.009214609 0.08643209 0.03816449 0.066630736 -0.010979178 0.0004521718
0.08238259 0.07553473 0.034093246 0.049778465 -0.03473478 0.022842642 0.0038902909 -0.04645732
0.07320837 0.001006421 -0.0013240023 -0.1312271 0.00020391041 -0.07781225 -0.0030235355 0.12201108
-0.02785163 -0.029648695 0.06571748 0.035662122 -0.0233244 -0.018376416 0.020932127 -0.0015434625
0.015593027 0.06074893 -0.030444825 0.03061906 -0.016841227 0.027362913 -0.032097455 0.00017094682
0.00024582227 -0.00045075794 0.03476991 -0.03068111 0.01649807 0.0014380694 -0.0035833602 -0.0163755

fc1.weight f4 [128, 64]
00000000: 82e6 b639 9098 86bb 5b4b e1bb 1e9a 773b
00000010: d46e 0c3e dbf9 a6bc ed05 183b de8b 093e
00000020: 7100 a33d 4a87 fc3d 6c82 f3bc 89fe a2bd
00000030: 158c 713d 7542 37be 1184 9a3c e4ab b0bc
00000040: 6c60 9d3d 1f94 293e 97c7 7d3d 7f9d b03c
00000050: 87aa d4bd 3b49 8739 c276 243e 6f2a b2bd
00000060: 5cbc 25bd 52bc e03c be69 89bc 85c1 693d
00000070: 23ba 233e e3a9 ddbd ba7b d83c 1c38 cbbb
00000080: 59b3 d83d f08c 323e d318 673b 943a 1a3d
00000090: f547 8d3a 438b b53c ac99 ba3a 6c0b 263c
000000a0: 3b26 bcbc f9db a73d 04b1 58bc c692 e4bc
000000b0: 52c5 5bbd 5e05 2f3e 99a9 28bd c254 133a
000000c0: 4337 9c3c a95b 353e 12fb ce3d 8415 aa3c
000000d0: 5d0f 9fbd dfec 1a3a 8731 7cbd 346d 323d
000000e0: 8c8f 04bb 1be5 c5bb 3751 3f3d c9c4 8f3b
000000f0: 45db d03d e52f adb9 9773 223b e1bd fc3d
00000100: a2d2 33bb 95d2 39ba d527 b4bb 09f1 923b
00000110: ae4c 573c 8e65 31ba 57c5 2db9 5bb7 853e
00000120: 898b 073d 9b6f b3bc 5de0 623c d2c6 afbc
00000130: bcf4 223e 66e3 bcbc cba8 04bd a602 0bbd
00000140: d50f 6abc 829a 103e a349 663c 245c 993c
00000150: 1134 ae3c d5c0 4ebc d1de 7a3b d8f6 68bc
00000160: a033 d93b 7f46 98bc 6a31 ddba 1090 bf3c
00000170: 136b 95bd 8ebe c43d c464 28bc 2c6e cb3d
00000180: 37ef a3ba 5b7b 9e3d f0b0 2aba 9c0b 85bd
00000190: 8a26 8b3b 5704 1a3e c5dc 0dbb 231a d13d
000001a0: 657e 0a3e b3bd 0dbd 913e 133c a17f f63b
000001b0: 8edf 9fbc 3de0 e53d cb38 aebc cf1a c83b
000001c0: ed2a 48bc 0a70 05bd 6c97 173d 23c5 ab3c
000001d0: d369 68bd fa29 053c 4d6a 6ebb f6c2 e6bb
000001e0: 065c 5bba 021d 2bbb aaae 9e3c c4a9 833a
000001f0: d020 b7bd 4ff3 a939 c80b 413b 4cac afbd
00000200: b28a 60b9 bd73 443d 6d53 593b c72e 11bc
00000210: 4458 7bb9 d37b b43d 81e6 b43b 49bb 0bbc
00000220: 3e60 263d 91f6 10be 2f3f cd3d c70e 863d
00000230: 51f3 083e 58ae 23bd ba44 303e e904 bc3d
00000240: 0075 353d 3557 6abd be3c cabd 2f82 d5bc
00000250: 7d2c 82bd ddf2 a33d 5c90 e6bd 4dd5 793e
00000260: 6cf3 913c 06e2 cabc edfe e93d 8fbd aabd
00000270: a8d1 11be 6574 38be 5577 ebbc cf07 e4bd
00000280: 05f9 15be bd60 17be b392 603c 857e 58bd
00000290: b32d 403a 43f0 813d 56f1 c53b bf0f 37bd
000002a0: a196 893d 4c1c 6dbc 5d1a b43c d43f 623d
000002b0: 4722 793d d122 12be 4449 483d 8b03 2ebb
000002c0: e02d dcbb 387f 76bd 9874 4e3e 2660 c33c
000002d0: 341f 3e3d 279e 093c 4688 c13d 50c9 3c3d
000002e0: 5c34 283c 2f3d 6b3b 47ec e9bc 20f1 dc39
000002f0: d2f2 5fbc 946e d33a ca17 743b fec5 ea3d
00000300: 28de 62ba 389d d8bb a89f 2dbb acc7 a63b
00000310: 79e8 c33b 63f1 3abc 73f5 25bb 1e81 7f3e
00000320: 2c39 d93c 0fdd 953d 7024 25bd 3229 87bd
00000330: a3d3 f23d 42bf f7bb 265b cabc 98e4 20bd
00000340: 6af6 b9bc 5fa5 503e 95e8 4e3d 602f 853c
00000350: d6fb 143d 07d1 86bc ded5 223d 5e34 3fbd
00000360: 181a 91bc 27be 0aba fc96 6dbc c2fb 133d
00000370: 92d3 183d 74f5 973c c535 5aba 28cf 033e
00000380: 8268 363d 18fc 1a3e 4a0c 663b e86f 73bd
00000390: ea05 db39 e9df 283e 7539 433b fc47 ab3d
000003a0: 3edd c73d 8db2 92bc e775 753c 6472 7bbd
000003b0: 2df7 4fbd 3b82 b13d 195f 163b d592 06bb
000003c0: 487c 9d3a 09ff 2f3d 84a8 c63b 84fc 963c
000003d0: f11b 25bd 4dfb 593c 4623 213b b638 bfbc
000003e0: 6f80 a83b 4f78 383b 7f27 c03c c110 7abb
000003f0: 4046 0cbd dc4e 17b8 9463 9b3a 1ee1 57bd
0.00034885487 -0.0041075423 -0.006875438 0.003778107 0.13714153 -0.020382812 0.0023196891 0.13432261
0.079590686 0.12330492 -0.029725276 -0.07958705 0.058971483 -0.17896445 0.018861802 -0.021566339
0.07684407 0.1656041 0.06195792 0.021559475 -0.10384088 0.00025803767 0.16060928 -0.086995
-0.040462837 0.027433548 -0.016774055 0.05706932 0.15988974 -0.10823419 0.026426185 -0.006201757
0.10581083 0.17436576 0.00352626 0.03765352 0.0010778891 0.022161132 0.0014236472 0.010134559
-0.022967448 0.08196253 -0.013225798 -0.027902018 -0.053654976 0.17091891 -0.041177366 0.0005620235
0.01906932 0.17710747 0.101064816 0.020762213 -0.07766602 0.00059099303 -0.06157067 0.043561175
-0.0020227162 -0.0060392744 0.046708312 0.0043874723 0.10198072 -0.00033032816 0.0024788135 0.12340904
-0.002743878 -0.0007088569 -0.0054979124 0.0044843 0.01314084 -0.0006767147 -0.0001657208 0.26116452
0.033092055 -0.021903804 0.013847438 -0.02145711 0.15913671 -0.02305765 -0.032387536 -0.033938073
-0.014286001 0.1412144 0.014055642 0.018720694 0.021265062 -0.012619217 0.0038279782 -0.014219008
0.0066284686 -0.018588303 -0.0016875688 0.023384124 -0.072958134 0.09606658 -0.010277931 0.09933123
-0.0012507205 0.07738372 -0.0006511351 -0.06496355 0.0042465376 0.15040718 -0.0021646481 0.10210063
0.13524778 -0.03460474 0.008987085 0.007522539 -0.019515779 0.11224411 -0.021267315 0.0061067115
-0.012217266 -0.032577552 0.03700964 0.020968026 -0.056741547 0.008127684 -0.0036379278 -0.007042284
-0.00083678996 -0.002610982 0.019370396 0.0010045101 -0.08941805 0.0003241547 0.0029456485 -0.08577785
-0.00021413973 0.04796194 0.0033161298 -0.00886125 -0.00023970107 0.0881268 0.0055206423 -0.008528539
0.040619127 -0.14156558 0.10021817 0.06545787 0.13374068 -0.03996119 0.17213717 0.09180624
0.044301033 -0.057212073 -0.09874867 -0.026063053 -0.06356142 0.08005307 -0.11258003 0.24397774
0.017816268 -0.02476598 0.11425576 -0.08336937 -0.14240134 -0.18013151 -0.028743425 -0.11134302
-0.14645775 -0.14782996 0.013706851 -0.052855033 0.00073310285 0.063446544 0.0060407324 -0.04469275
0.06718183 -0.0144720785 0.021985227 0.055236652 0.060823705 -0.14271094 0.048897997 -0.0026552405
-0.006719336 -0.06017992 0.20161664 0.023849558 0.046416476 0.008399523 0.0944982 0.046090424
0.01026639 0.0035894623 -0.028555049 0.00042141322 -0.013668733 0.0016130977 0.0037245625 0.11463545
-0.00086543197 -0.006610539 -0.0026492868 0.0050897207 0.0059786406 -0.01141009 -0.00253233 0.24951598
0.02651652 0.07317554 -0.040317953 -0.06599654 0.11856773 -0.0075606415 -0.024701666 -0.039280504
-0.022700507 0.20375584 0.050514776 0.016257942 0.036372982 -0.016457094 0.03975474 -0.0466808
-0.017712638 -0.0005292617 -0.0145013295 0.036128767 0.037311144 0.018549658 -0.00083240523 0.12871993
0.04453326 0.15135229 0.003510254 -0.059432894 0.0004177534 0.16491665 0.0029788886 0.08363339
0.097589955 -0.017907405 0.014981723 -0.06138839 -0.050772835 0.086674176 0.0022944866 -0.0020534296
0.0012015188 0.04296783 0.006062569 0.018430956 -0.04030985 0.013304544 0.0024587675 -0.023342472
0.0051422636 0.0028147881 0.023456333 -0.0038156959 -0.034246683 -3.607465e-05 0.0011855238 -0.052704923
