mnist/evaluation_resources/C_state_dict.pt (torch_old, 685154 bytes, 19 tensors)

conv1.g f4 [1, 800]
000000 ee 98 bb bd 8f ab 1f bc 4f 2e 4f 3e f8 ca 8c be
       -0.091600284 -0.009745493 0.20232509 -0.27498603
000010 ac 92 16 bf 65 63 84 be f9 68 25 3e 48 4a b2 be
       -0.58817554 -0.25857082 0.16153325 -0.34822297
000020 c3 5f d9 3d fa b6 ab be 1a 01 4a be a8 17 2c be
       0.10613968 -0.33538038 -0.19726983 -0.16805899
000030 48 59 6e 3e ca b9 85 3d ff 11 71 bf ac a1 fe 3e
       0.23276246 0.06529577 -0.94168085 0.4973272
000040 ad f1 3c be e1 9f aa 3d 0e 78 6a 3e 42 b4 49 bf
       -0.18451567 0.08331276 0.2289736 -0.78790677
000050 08 c8 98 3e 95 a7 26 3d 79 af b2 be e1 24 3f be
       0.29840112 0.040687162 -0.348995 -0.18666412
000060 5c b9 8f 3c 40 74 39 3e 8c 47 fd 3e 82 8d 93 3e
       0.01754444 0.18110752 0.49468648 0.288189
000070 2a 45 97 3c 6d f5 bf bc 47 1a 0f be d2 e9 f4 37
       0.018465597 -0.023432458 -0.13974868 2.9195948e-05
000080 36 03 00 80 c7 e0 00 80 6f e3 00 80 c3 1b 00 00
       -1.152e-42 -8.0635e-41 -8.1588e-41 9.959e-42
000090 19 e4 00 80 26 1f 00 80 63 16 00 80 2f a3 00 80
       -8.1826e-41 -1.1174e-41 -8.031e-42 -5.8539e-41
0000a0 42 ca 00 80 e0 1f 00 00 d1 a3 00 80 71 29 00 80
       -7.2556e-41 1.1435e-41 -5.8766e-41 -1.4866e-41
0000b0 2e e2 00 00 5e 0c 00 00 4e 9e 00 80 3c e1 00 00
       8.1138e-41 4.437e-42 -5.6789e-41 8.0799e-41
0000c0 7c 29 00 00 23 18 00 00 dd 09 00 00 67 bc 00 80
       1.4882e-41 8.659e-42 3.538e-42 -6.7586e-41
0000d0 8d a0 00 80 98 e2 00 00 f8 ba 00 00 76 ef 00 80
       -5.7595e-41 8.1287e-41 6.7072e-41 -8.5902e-41
0000e0 c1 21 00 80 1c 6f 00 00 35 71 00 00 de b4 00 80
       -1.2109e-41 3.9859e-41 4.0611e-41 -6.4883e-41
0000f0 72 2a 00 80 a1 bc 00 80 5b 0f 00 00 c7 4a 00 00
       -1.5227e-41 -6.7667e-41 5.509e-42 2.6825e-41
000100 20 e6 00 80 57 09 00 80 c5 c9 00 80 5f 0c 01 00
       -8.2553e-41 -3.35e-42 -7.2381e-41 9.6273e-41
000110 05 e5 00 80 a7 2a 00 00 26 e6 00 00 7b 7a 00 00
       -8.2157e-41 1.5301e-41 8.2562e-41 4.3938e-41
000120 bf e5 00 80 8e 29 00 80 10 15 00 80 13 2a 00 00
       -8.2417e-41 -1.4907e-41 -7.556e-42 1.5093e-41
000130 90 1f 00 80 6f 27 00 80 9e 50 00 00 27 04 00 00
       -1.1322e-41 -1.4146e-41 2.892e-41 1.49e-42
000140 4b e2 00 00 b9 95 00 80 2b 0c 00 00 15 ca 00 80
       8.1179e-41 -5.371e-41 4.365e-42 -7.2493e-41
000150 b3 bb 00 80 d2 e5 00 80 1e bc 00 80 14 bf 00 00
       -6.7334e-41 -8.2444e-41 -6.7484e-41 6.8546e-41
000160 69 e6 00 80 93 0c 00 00 66 16 00 80 96 09 00 80
       -8.2656e-41 4.511e-42 -8.035e-42 -3.439e-42
000170 3c 50 00 80 5c 21 00 00 e5 e1 00 00 10 2a 00 80
       -2.8783e-41 1.1967e-41 8.1036e-41 -1.5089e-41
000180 f7 26 00 00 06 a4 00 00 67 bd 00 80 60 2a 00 80
       1.3978e-41 5.884e-41 -6.7945e-41 -1.5201e-41
000190 ec 02 00 00 6d e6 00 80 30 10 00 00 ea 57 00 80
       1.048e-42 -8.2661e-41 5.807e-42 -3.1538e-41
0001a0 50 b5 00 00 8a b5 00 80 83 07 00 00 ac 0b 01 00
       6.5043e-41 -6.5124e-41 2.695e-42 9.6023e-41
0001b0 21 4c 00 80 ca 4a 00 80 7d bc 00 80 b1 29 00 80
       -2.731e-41 -2.6829e-41 -6.7617e-41 -1.4956e-41
0001c0 f7 a4 00 00 a6 27 00 80 cb 28 00 80 1a a4 00 80
       5.9178e-41 -1.4223e-41 -1.4634e-41 -5.8869e-41
0001d0 09 28 00 00 42 4c 00 00 73 7c 00 00 03 bd 00 80
       1.4362e-41 2.7356e-41 4.4644e-41 -6.7805e-41
0001e0 a3 2a 00 80 e3 a2 00 80 97 e3 00 00 c2 08 00 00
       -1.5295e-41 -5.8433e-41 8.1644e-41 3.142e-42
0001f0 d4 29 00 80 c9 20 00 80 53 06 00 80 bc 0c 00 00
       -1.5005e-41 -1.1761e-41 -2.269e-42 4.568e-42
000200 ab 9e ad bf d1 a3 aa bf 7c a8 30 3f a9 c8 3a bd
       -1.3564047 -1.3331243 0.69007087 -0.04560152
000210 ad 52 bb 3e 9b 72 ce 3e f7 1e b2 be 43 4f c7 3e
       0.36586514 0.40321812 -0.3478925 0.3892766
000220 51 fa a2 3e 5e 44 02 3e 6f fd b2 3d 29 72 90 be
       0.318316 0.12721393 0.08739745 -0.28212097
000230 da bb e9 3e 6b f8 45 bf b3 74 e8 3e 46 25 1c bf
       0.45651132 -0.7733218 0.45401534 -0.60994375
000240 50 39 6d 3c 2f 31 9e be 17 44 0b 3f 50 33 99 bf
       0.014478996 -0.308969 0.5440077 -1.1968784
000250 65 5e 4f 3f 69 26 92 3e 34 49 cc be 79 68 e4 3e
       0.8100341 0.2854493 -0.398996 0.44610956
000260 60 53 bd be 24 af d6 3e bc 65 27 be 0a 95 86 bd
       -0.36977673 0.41930497 -0.16347402 -0.06571396
000270 1c 13 16 bf 55 43 52 be 6b 48 2b 3f 85 f6 14 3e
       -0.5862291 -0.20533498 0.66907376 0.14547165
000280 eb 4a 00 80 77 02 00 80 9c 16 00 80 ee 04 00 00
       -2.6876e-41 -8.84e-43 -8.111e-42 1.768e-42
000290 31 51 00 80 29 4d 00 80 b8 1f 00 00 2a e2 00 80
       -2.9126e-41 -2.768e-41 1.1379e-41 -8.1132e-41
0002a0 17 20 00 80 9d 24 00 80 d7 29 00 00 7d 22 00 80
       -1.1512e-41 -1.3134e-41 1.501e-41 -1.2372e-41
0002b0 df 4b 00 80 1b e2 00 80 bc 02 00 00 ce e1 00 80
       -2.7217e-41 -8.1111e-41 9.81e-43 -8.1003e-41
0002c0 66 7a 00 00 28 1e 00 00 56 e2 00 00 1f b5 00 80
       4.3908e-41 1.0818e-41 8.1194e-41 -6.4974e-41
0002d0 d4 0c 01 80 bb e1 00 80 b0 a2 00 00 10 05 00 80
       -9.6437e-41 -8.0977e-41 5.8361e-41 -1.816e-42
0002e0 b0 2a 00 80 e3 a3 00 80 18 05 00 80 18 0c 01 00
       -1.5313e-41 -5.8791e-41 -1.827e-42 9.6174e-41
0002f0 22 05 00 00 24 ca 00 00 93 23 00 00 d9 26 00 00
       1.841e-42 7.2514e-41 1.2762e-41 1.3936e-41
000300 21 53 9f 3e 39 70 d7 3e a7 63 5e 3e 24 9b 57 bf
       0.3111811 0.42077807 0.21717702 -0.842211
000310 67 97 25 3e 4c 06 b8 3e 04 a5 2f 3f e1 99 44 be
       0.16171037 0.35942304 0.6861117 -0.19199325
000320 ef ab 80 3e fa 84 9d bf 9f 71 2c bf 65 eb 7b bf
       0.25131175 -1.2306206 -0.6736087 -0.9840606
000330 0c 98 9a be 2d 96 2e 3d 86 d9 19 be 4d c2 51 3e
       -0.30194128 0.042623688 -0.15024385 0.20484276
000340 0c 76 57 3e e8 c5 36 3f a9 0b 08 3e dc 7d 0e 3f
       0.21041125 0.7139573 0.13285698 0.55660796
000350 e3 80 84 bf 90 03 71 bf 31 47 d3 be 34 3a b1 bc
       -1.0351833 -0.9414606 -0.41265252 -0.021634199
000360 87 94 ec bd 07 e1 01 bf 71 f4 9c 3e 2a 57 89 3e
       -0.11551767 -0.5073399 0.30655244 0.26824313
000370 ad a0 6e bf c9 87 55 bf d0 bc 16 bf 6b 92 10 bd
       -0.9321392 -0.83410317 -0.58881855 -0.035295885
000380 28 96 64 be 08 a1 bd 3c c8 2c a6 3d 1f 7d b2 3e
       -0.22322905 0.023148075 0.0811401 0.34861085
000390 4a e9 f8 be cb 44 23 bf 2c 2b d7 3e 54 7d 23 3d
       -0.48615485 -0.63776845 0.42025125 0.039914444
0003a0 fb 44 86 bd d9 b7 de be d4 d1 2d be 88 ff 70 3c
       -0.06556126 -0.4349964 -0.16974574 0.014709361
0003b0 f6 0b 52 bf 12 94 2b 3f 27 18 45 bf 41 6e 11 3f
       -0.820495 0.6702281 -0.7698998 0.5680886
0003c0 b4 41 08 bf ae 58 58 3e 12 e1 3d be 76 b2 b4 be
       -0.53225255 0.21127579 -0.18542889 -0.35292405
0003d0 9a 65 71 3e bc 1f 41 bd 01 66 c1 be 8e 02 32 3e
       0.23573914 -0.047149405 -0.37773135 0.17383787
0003e0 2b dd db be 23 af 1c bf 09 38 a3 3e 2d 2e bb 3e
       -0.42942175 -0.6120474 0.3187869 0.36558667
0003f0 24 fd 6e 3d 2c d2 32 3f 4b 47 63 bf 97 a8 0b be
       0.058346882 0.69851947 -0.8878066 -0.1363853

conv1.mu f4 [25, 2]
000000 a3 41 53 3e 43 fb b6 3e 5f 95 00 00 6e 0a 00 00
       0.20630507 0.35738572 5.3584e-41 3.741e-42
000010 56 e2 00 80 31 1d 00 00 04 a4 00 80 09 b5 00 00
       -8.1194e-41 1.0472e-41 -5.8838e-41 6.4943e-41
000020 d2 31 12 3f ff 80 a6 3e 44 c8 00 80 e6 4d 00 80
       0.5710727 0.3252029 -7.1842e-41 -2.7945e-41
000030 59 6d 0a 3f 6b 16 02 3f fa 37 bb 3e 72 54 a8 3e
       0.540731 0.5081546 0.36566144 0.32876927
000040 3f c3 c9 3e 51 89 8f 3e 71 0e 00 80 10 4d 00 80
       0.39406773 0.28034452 -5.18e-42 -2.7645e-41
000050 be f1 04 3f d6 4b ef 3d dd 53 a2 3e 58 28 04 3f
       0.5193137 0.116843864 0.31704608 0.5162406
000060 05 a4 00 80 2c 0c 00 80 d2 e1 00 00 c5 a3 00 80
       -5.8839e-41 -4.366e-42 8.1009e-41 -5.875e-41
000070 f2 ae 55 3e d6 64 ba 3e 58 bc 15 3f cd e1 4e 3f
       0.20867518 0.36405057 0.58490515 0.80813295
000080 ba 86 18 3f 51 d9 9e 3e 07 8a 03 3f 07 f3 2d 3e
       0.59580576 0.31025174 0.5138249 0.16987239
000090 73 e2 00 80 19 57 00 80 c6 d9 b7 3e ce 00 34 3f
       -8.1235e-41 -3.1245e-41 0.35908335 0.7031373
0000a0 68 25 fc 3e 36 c6 04 3f b5 e0 49 3e 49 97 1f 3f
       0.4924729 0.51864946 0.19714625 0.6234022
0000b0 3b 0a 03 3f dc ca ea 3d 67 5c 3d 3f f9 fd f1 3e
       0.51187485 0.114644736 0.7396912 0.47264078
0000c0 ec 1d 00 80 6a b4 00 00
       -1.0734e-41 6.472e-41

conv1.sigma f4 [25, 2]
000000 cf 6b 4b 3e 15 56 09 be 2c 0d 00 80 f0 56 00 80
       0.19865344 -0.13411744 -4.725e-42 -3.1187e-41
000010 8d 27 00 00 5b c9 00 80 b5 1b 00 80 39 c7 00 00
       1.4188e-41 -7.2233e-41 -9.94e-42 7.1468e-41
000020 55 1b db 3d 40 d5 84 bd 74 e1 00 80 47 2a 00 00
       0.106985725 -0.06485987 -8.0877e-41 1.5166e-41
000030 dd c2 c3 be e9 4a bc 3d 09 c7 ae 3d 0f 18 ef 3d
       -0.38234606 0.091939755 0.08534057 0.11674511
000040 a3 21 d3 3d ee 32 d1 bd 9b c0 00 00 bd e1 00 80
       0.1030915 -0.10214792 6.9094e-41 -8.098e-41
000050 61 4f 11 3e 7a ca b8 bd e8 05 63 bd dd 3a f6 bd
       0.14190437 -0.09022994 -0.055425555 -0.12022946
000060 cd 09 00 00 dd 29 00 00 8d ba 00 00 9d b4 00 00
       3.516e-42 1.5018e-41 6.6922e-41 6.4792e-41
000070 98 d7 0b be 30 a5 1b 3e 65 49 d7 be d9 0f 17 3e
       -0.13656461 0.15199733 -0.42048183 0.14752139
000080 a8 73 90 3e c3 40 93 3d 69 49 20 bf e3 a5 b0 3d
       0.2821324 0.07190087 -0.62612015 0.086253904
000090 bb a0 00 00 cc b9 00 00 fd a2 0b 3e a8 81 d5 bd
       5.7659e-41 6.6651e-41 0.13636394 -0.104251206
0000a0 52 8d b0 bd cb 33 7c 3e 74 4c 12 3e 40 51 1c 3e
       -0.08620705 0.24629132 0.14286977 0.1526537
0000b0 be c0 57 3e 23 f2 c2 3d 96 e4 e9 3d 01 42 8b be
       0.21069619 0.0951884 0.114205524 -0.27198794
0000c0 53 c9 00 80 26 ba 00 80
       -7.2222e-41 -6.6777e-41

conv1.root f4 [1, 32]
000000 53 36 2a 3e d9 f2 24 3e c4 ca 6e be 8b 70 c0 3e
       0.16622286 0.16108264 -0.23319536 0.37585863
000010 56 ea 77 bd ef 5d f6 3d 49 8e 63 3e 6d a8 22 bb
       -0.060526215 0.12029635 0.22222246 -0.0024819628
000020 32 b5 fa be 0c 71 da be 62 0a 04 b8 b3 0f 50 3e
       -0.48966366 -0.42664373 -3.1480922e-05 0.20318489
000030 ee b0 f1 3d 63 c1 e9 be 95 28 a9 3e 78 63 bd bd
       0.11801325 -0.45655355 0.33038774 -0.09247488
000040 30 b9 df bd 05 00 35 be 26 64 87 3e 36 48 f6 3d
       -0.109239936 -0.17675789 0.26443595 0.12025492
000050 75 f7 19 be 32 80 ec bd 14 fa 1a bd 4f 01 ed 3c
       -0.15035804 -0.11547889 -0.03783615 0.028931288
000060 13 6c 7d be d0 25 e5 3d 14 f0 75 3e c3 a2 81 3e
       -0.24748258 0.11188853 0.24017364 0.2531949
000070 29 0e f7 3c b8 87 99 3e 69 78 33 3e 88 6e 3b bc
       0.03015812 0.29986358 0.17526402 -0.011439927

conv1.bias f4 [32]
000000 3b a2 42 bd c8 98 7c bc f0 69 cb bd d1 9d 10 be
       -0.047517996 -0.015417285 -0.09932315 -0.14122702
000010 6f 99 72 bd b6 d9 41 bc 04 0d 96 bb 9a 0b 9f 3d
       -0.059228357 -0.0118316915 -0.0045791883 0.07765885
000020 52 08 25 3d 33 85 d1 bc 40 e7 54 3d 6e a8 50 bc
       0.040291138 -0.02557621 0.05197835 -0.012735469
000030 a5 76 5c bc cf df 11 bd ac d1 cc bd 93 72 a2 bd
       -0.013456021 -0.03561383 -0.10000929 -0.079320095
000040 fc bd 23 3d 50 e9 6e bd 16 c6 e0 bd 96 2a 61 3c
       0.039976105 -0.058327973 -0.10975282 0.013743063
000050 bf 28 89 bc e9 0d 81 bd 12 23 83 3d f4 c6 ed bd
       -0.016743062 -0.06301481 0.064031735 -0.11610213
000060 f0 e1 c1 3d 6c 5b 9a bb 48 17 cb bd 5e 37 4b be
       0.09466922 -0.0047106054 -0.0991655 -0.1984534
000070 a6 d0 33 bc 8e 31 34 bd 08 4a 9f 3b 7e c5 a2 3d
       -0.010975039 -0.04399257 0.00486112 0.07947825

conv2.g f4 [32, 1600]
000000 06 fd 07 bc 25 35 bc bb 74 f2 78 3d 39 9b 3d 3c
       -0.008300072 -0.00574364 0.060778096 0.0115726525
000010 c3 82 0c 3a 5f 89 c4 3d 4c 18 05 bd 3f 14 98 3d
       0.0005360061 0.09596514 -0.032493874 0.07425737
000020 d5 a3 ec bc 21 5c 38 bd 44 95 4a 3c d7 99 18 bd
       -0.028886715 -0.045009736 0.012364689 -0.037256088
000030 6e 5c f0 3c 5c 62 4c ba 2f a0 b9 3b 2b ac ba bc
       0.029340949 -0.0007796639 0.0056648473 -0.022787174
000040 e6 0f a9 bd e9 8d e2 bc e3 fb e0 bc bf b7 1f bc
       -0.082549855 -0.027655559 -0.027463859 -0.009748398
000050 79 4c a2 3c fd 4f 16 bd d1 27 e8 bc d3 78 08 3d
       0.019811856 -0.036697377 -0.028339298 0.033318352
000060 0c 36 13 3d 61 14 02 bd 09 69 c4 3c 04 05 d6 3c
       0.035940215 -0.031757716 0.023975866 0.026125439
000070 36 39 15 3d 0e e7 35 3a fe 51 ec 3c a2 dd 3d 3d
       0.036431514 0.0006939032 0.02884769 0.046353944
000080 70 67 7d 3c 60 cc 69 bd 0b 8c ff 39 af b3 3a 3c
       0.015466556 -0.057079673 0.0004874173 0.011395379
000090 f1 e9 ba 3c ba 91 6d bd 72 b7 d2 3c 42 e9 69 3a
       0.02281663 -0.058000304 0.02572224 0.0008923003
0000a0 f1 5c f8 3c fe 09 2b bc 59 0e 8a bd d6 f7 bc bd
       0.030317755 -0.010439394 -0.06741018 -0.092269585
0000b0 87 87 11 3d 82 c1 d0 bc 75 66 50 3d 7c f8 b6 bc
       0.03552964 -0.025482897 0.05087896 -0.022335283
0000c0 56 fa 6e bc 5a db 01 bc f7 8a eb 3c a0 ae a1 bd
       -0.014586052 -0.007925833 0.028752787 -0.07894635
0000d0 40 03 27 3d 2a e3 f0 bb ee ef a3 bd 19 62 00 3b
       0.040774584 -0.007351299 -0.08004747 0.001958972
0000e0 e4 b4 72 3c 6d 1f 28 bc 60 d7 20 3d 30 b0 22 3d
       0.0148136355 -0.010261399 0.039267898 0.039718807
0000f0 b0 f1 1c 3c b8 44 40 bd f1 6c bf bc 25 4e ef bd
       0.009579107 -0.046940535 -0.023367377 -0.11684827
000100 36 4a 65 3c 8d bb b6 bc 3b 08 4b 3d cd 11 69 3d
       0.013994744 -0.022306228 0.049568396 0.05690174
000110 36 58 5b 3d 7f 61 9d 3d d1 ae 87 bc 3c 5f e7 3d
       0.05355092 0.076846115 -0.016562851 0.112974614
000120 d7 e4 58 3d b9 d7 98 bc f3 a4 2f bd f2 48 1e bc
       0.052952614 -0.018657552 -0.042881917 -0.009660946
000130 0b bb 72 3d 5f 8e 27 bd 3f 16 ce 3b d6 1a 76 bc
       0.05926041 -0.04090726 0.006289273 -0.015021047
000140 3c 67 4e bd b0 ab cb bc 03 47 65 bd e7 65 16 ba
       -0.05039142 -0.02486214 -0.055975925 -0.00057372305
000150 2b cc c1 3b 8e f5 2b bd 36 78 9f bc 92 89 2d 3d
       0.0059142313 -0.041982226 -0.0194665 0.042367525
000160 c3 bf 3c 3d 4f c2 c1 3c 5b 22 36 3d 4d fe 83 3d
       0.046081316 0.023652224 0.044466358 0.064449884
000170 55 c2 31 bd c8 07 69 3b ed 9b 88 3d 50 61 9f bd
       -0.04339822 0.0035557617 0.066703655 -0.07782233
000180 91 65 5a 3c fe 8a 6b 3a 70 c2 0f bd a4 f8 c1 bc
       0.013329879 0.000898525 -0.03509754 -0.023678131
000190 04 e3 21 3d 71 70 0a bd 8e 56 f4 3c 6f 77 a0 bd
       0.03952314 -0.03379864 0.029826429 -0.0783528
0001a0 6f 2a 6f 3e 47 5d 2f bc d3 0e 2c bd 99 5a 8e bd
       0.23356031 -0.010703391 -0.042006325 -0.06950874
0001b0 a0 74 85 3c 9f f2 66 bb 7c a4 aa 3c 02 5b 97 ba
       0.016290963 -0.0035239828 0.020830385 -0.0011547508
0001c0 9b 39 15 bd ba a6 7a 3c 0d 5e 11 3d 2c 7e c9 bd
       -0.03643189 0.01529854 0.035490084 -0.098385185
0001d0 91 d5 9d 3d 51 88 90 3d d1 e1 db bd 83 b3 3c bc
       0.0770675 0.0705725 -0.107364304 -0.011517408
0001e0 53 16 5b bc 3e 5b bc bb 23 50 b3 bd e5 06 8e bc
       -0.013372022 -0.0057481816 -0.08755519 -0.017337272
0001f0 7b 32 20 bd 8f 89 0d be 8c 58 cd 3c ab 98 bf bd
       -0.039110642 -0.13822006 0.025066637 -0.09355291
000200 55 4b 00 00 01 05 00 00 6d 7a 00 00 67 22 00 00
       2.7024e-41 1.795e-42 4.3918e-41 1.2341e-41
000210 b7 bf 00 80 37 be 00 00 9d b4 00 80 86 95 00 80
       -6.8774e-41 6.8236e-41 -6.4792e-41 -5.3639e-41
000220 33 4b 00 80 e8 01 00 00 09 28 00 00 04 1e 00 00
       -2.6976e-41 6.84e-43 1.4362e-41 1.0768e-41
000230 14 e6 00 00 de 6d 00 00 7f ba 00 00 6c a3 00 80
       8.2536e-41 3.9413e-41 6.6902e-41 -5.8625e-41
000240 1c 1e 00 80 f4 a3 00 80 fc a0 00 80 13 19 00 00
       -1.0801e-41 -5.8815e-41 -5.775e-41 8.995e-42
000250 aa 1b 00 00 b1 03 00 80 af bc 00 00 a8 4e 00 80
       9.924e-42 -1.324e-42 6.7687e-41 -2.8217e-41
000260 08 2a 00 80 4c 1d 00 80 24 2a 00 00 d6 17 00 00
       -1.5078e-41 -1.051e-41 1.5117e-41 8.551e-42
000270 70 94 00 00 22 6e 00 00 0b 2a 00 00 f1 e4 00 80
       5.325e-41 3.9508e-41 1.5082e-41 -8.2129e-41
000280 2e bc 00 80 5a 09 00 80 df be 00 80 df 4b 00 80
       -6.7506e-41 -3.355e-42 -6.8472e-41 -2.7217e-41
000290 b7 10 00 80 37 03 00 80 8d a0 00 00 71 e6 00 00
       -5.996e-42 -1.153e-42 5.7595e-41 8.2667e-41
0002a0 eb 0a 00 80 de 02 00 80 08 27 00 80 46 c9 00 00
       -3.917e-42 -1.029e-42 -1.4002e-41 7.2203e-41
0002b0 a1 4a 00 00 c7 e5 00 80 65 24 00 00 86 a3 00 80
       2.6772e-41 -8.2429e-41 1.3056e-41 -5.8661e-41
0002c0 75 03 00 80 68 1b 00 00 3a 18 00 00 a0 12 00 80
       -1.24e-42 9.832e-42 8.691e-42 -6.681e-42
0002d0 6a e1 00 00 c0 27 00 00 e0 e5 00 00 fc 29 00 00
       8.0863e-41 1.426e-41 8.2464e-41 1.5061e-41
0002e0 83 29 00 00 59 23 00 80 f0 22 00 80 40 b5 00 80
       1.4892e-41 -1.268e-41 -1.2533e-41 -6.502e-41
0002f0 6e 09 00 80 a4 c9 00 00 eb 50 00 00 de a0 00 00
       -3.383e-42 7.2335e-41 2.9028e-41 5.7708e-41
000300 1a 90 d3 3b a1 e4 4a 3c 80 12 90 3d e0 ce 03 3c
       0.006456387 0.012383611 0.070347786 0.008044928
000310 3a 0a 3f 3c 99 d6 30 3d fb b9 ff bc cf 25 ea bc
       0.011660153 0.043173406 -0.031216612 -0.028582482
000320 27 9f 82 bc 2f 6d bc bd e7 11 56 3c a1 2f df bc
       -0.01594503 -0.092005126 0.013065792 -0.02724439
000330 7a 9c 2f bd e1 2c b7 3b a0 fc e0 bc b6 65 ee bc
       -0.042873837 0.005590067 -0.027464211 -0.029101234
000340 c6 1d 30 bd f0 c6 8c bc 5d f5 22 3d 46 ce a5 bc
       -0.042997144 -0.017184705 0.039784778 -0.02023996
000350 7a 96 0e bc 56 e5 f2 b9 1a 8d af 3c 81 a6 c1 3b
       -0.008702869 -0.00046328706 0.021429587 0.0059097414
000360 d6 58 bb 3b 49 b9 10 bd 8c b7 51 3c ce 70 6d bc
       0.005717377 -0.03533295 0.012800109 -0.014492227
000370 23 25 af 3c 2d 78 de 3a 9e 0b f0 3c de f3 a9 3d
       0.021380013 0.0016973071 0.029302415 0.08298467
000380 98 19 88 3c 18 2e 3a bd d8 6f a5 bc f1 8d 0f 3c
       0.016613767 -0.045454115 -0.020194933 0.008761869
000390 08 f4 54 bc 9a f9 44 bd 6a 64 e3 3b 05 f1 8b 3d
       -0.012997635 -0.0480896 0.0069394605 0.0683308
0003a0 ed 35 65 bd a4 9d 85 bc 96 ab 7f bd 1c 12 da bd
       -0.05595963 -0.01631052 -0.062419496 -0.10647985
0003b0 81 ce 4f 3d 24 68 53 bc 28 27 44 3d db c4 8f bd
       0.050734047 -0.012903247 0.047888905 -0.07019969
0003c0 82 9c e8 3a 10 56 65 39 a8 c8 4c bc 1b 30 09 3d
       0.0017746838 0.00021871203 -0.012499012 0.033493143
0003d0 36 c6 89 b9 ab 5c 27 bc 28 2f 5c bd 8a 1e e1 3c
       -0.00026278355 -0.010214965 -0.05375591 0.027480382
0003e0 15 eb 06 bd a3 d9 8c bb 56 f4 56 3d c8 09 e3 3c
       -0.032939035 -0.0042984053 0.05247911 0.027714625
0003f0 e0 2e bd 3b cc 2e 42 3d 3f 8b bc bc 7b c7 bf bc
       0.00577341 0.04740791 -0.023015616 -0.02341055

conv2.mu f4 [25, 2]
000000 30 41 f4 3e cc dc 66 3e 8e 18 13 3f e7 94 0a 3f
       0.47705984 0.22545165 0.5745934 0.54133457
000010 b8 a4 00 80 f4 1f 00 00 ab b2 fd 3e ce c5 47 bd
       -5.909e-41 1.1463e-41 0.49550375 -0.048772626
000020 da c9 f5 3e 03 50 fe bc 96 b2 a6 3d ae d1 b6 3e
       0.48005563 -0.031044012 0.08139531 0.35706848
000030 90 df 83 3e f3 07 c9 3e 26 8f ec 3e d7 f0 57 3e
       0.25756502 0.39263877 0.46202964 0.21087967
000040 3f 94 ce bc 29 04 1d 3f 26 c8 d1 bd ee b8 d0 3e
       -0.025217174 0.6133447 -0.102432534 0.4076609
000050 45 a9 e6 3e 67 37 87 3d a3 df 79 3e ef a2 78 3d
       0.45051017 0.06602364 0.24401717 0.06070226
000060 20 b4 1d 3e f9 ca 0a 3f ef 8f f5 3e 66 91 63 bd
       0.15400743 0.5421596 0.47961375 -0.055558585
000070 cb 0a ff 3d 78 69 73 3e 24 a8 bf 3e ae f3 37 3f
       0.124532305 0.23770702 0.3743297 0.718562
000080 fb d0 fe 3e c8 e3 98 3e 7b 3c b0 3e ec fa 3b 3f
       0.49768814 0.29861283 0.34421143 0.7342975
000090 6e 46 74 3f 70 f5 da 3e 8f d9 48 3f f4 84 81 3e
       0.9541997 0.4276538 0.7845697 0.25296748
0000a0 a4 bb 6d 3f 02 e5 17 3f 23 8e 57 3e 30 a4 3e 3f
       0.9286444 0.59333813 0.21050315 0.7446928
0000b0 7f f2 7c bd 3c 2f 02 3f d9 6a 0c 3f c4 4f 0c 3f
       -0.0617547 0.50853324 0.54850537 0.5480921
0000c0 d0 69 e3 3e 23 12 64 3f
       0.44416666 0.89090174

conv2.sigma f4 [25, 2]
000000 52 41 30 3f 53 6e 44 3e df c6 4b bf af 1a 50 3e
       0.6884967 0.1918271 -0.7960033 0.20322679
000010 2e 29 00 00 0a 2a 00 80 1e c4 04 bf 1f 5f 65 be
       1.4772e-41 -1.5081e-41 -0.5186175 -0.22399567
000020 89 7b 0d 3f 82 ef 5a 3e 7d 3f b9 be 7b ed 77 be
       0.55266625 0.21380427 -0.3618125 -0.24211685
000030 0b 84 11 3f 6f ba 4d 3e 73 aa 2f bf 9a 76 41 3e
       0.56842107 0.2009065 -0.6861946 0.18892899
000040 24 b0 9f 3e 4f 4e a3 3e 21 69 81 be a8 a5 ba 3e
       0.31189072 0.31895682 -0.2527552 0.3645451
000050 e3 98 1b 3f 95 ce 41 be 0c 62 88 3e 12 ff 97 be
       0.6078016 -0.18926461 0.26637304 -0.2968679
000060 b3 9a e6 3e 86 35 66 3e fe 32 08 bf 0a 75 5e 3e
       0.450399 0.22481355 -0.5320281 0.21724334
000070 a3 09 b9 be 52 5b 62 be 00 49 87 3e cb ec 18 bf
       -0.36140165 -0.22105148 0.26422882 -0.5973632
000080 85 e6 2a 3f 10 eb 49 be b7 a3 46 3f 3d f1 41 be
       0.66757995 -0.19718575 0.7759356 -0.18939681
000090 e8 ee 97 3e b1 cf ed 3e f3 30 b9 3e b0 70 86 3e
       0.29674459 0.46447518 0.36170158 0.2625785
0000a0 d0 90 af 3e 83 47 03 bf 72 81 96 be ff 52 e8 3e
       0.3429017 -0.51280993 -0.29395634 0.4537582
0000b0 cb 9d 85 be 4d 32 0d bf fe 31 75 be ea b4 48 bf
       -0.2609695 -0.5515488 -0.23944852 -0.7840105
0000c0 99 b2 54 3f 34 35 6d 3e
       0.8308502 0.23164827

conv2.root f4 [32, 64]
000000 b5 67 c4 3d 20 ed d5 bc fb 98 1a 3e b4 98 8e 3e
       0.09590093 -0.026114047 0.1509742 0.27850878
000010 80 14 20 3e b2 cf 9d 3e 50 f2 5b bd b8 98 3f 3e
       0.1563282 0.3082252 -0.053697884 0.18710601
000020 6c d0 19 bc bd 02 c3 be 40 7d 69 bb 5e 18 66 3b
       -0.009388071 -0.38088027 -0.0035627633 0.0035109739
000030 14 21 51 3d a9 27 0f bd 72 9e 24 bd ba 9a c9 bd
       0.051056936 -0.034949932 -0.040190168 -0.09843965
000040 55 d6 e6 bd 52 13 c2 3d 9e e9 0a be df 05 1f 3d
       -0.11271349 0.09476341 -0.1356568 0.03882396
000050 bd 5f 9d 3d e8 06 27 be d5 60 a8 3d 37 e9 43 3d
       0.07684276 -0.16311228 0.08221594 0.047829833
000060 0e bd c3 be 6e d6 dc 3e aa 02 23 3e 42 b1 2c bc
       -0.38230175 0.43132347 0.15918985 -0.010540308
000070 1b ee be bd 67 9b 1d bb f2 06 80 3c c0 49 b9 bd
       -0.09322759 -0.0024048926 0.015628312 -0.0904727
000080 be 70 a0 3e 98 83 21 bd 7b 00 84 be 4c 19 5a 3a
       0.31336015 -0.03943214 -0.25781617 0.00083198096
000090 d1 76 c9 3d 07 47 95 bd ee 0d 5a 3e d4 0e 47 be
       0.098371156 -0.07288938 0.21294376 -0.1943925
0000a0 60 f6 8b 3e 76 27 d9 3d d5 e2 6f bd 3a ab ae bd
       0.27336407 0.1060323 -0.058565933 -0.085287526
0000b0 8f 94 0b 3c fa c7 f3 3d 6d 9e 88 bd 82 6f b7 bd
       0.008519306 0.11903377 -0.06670842 -0.08956815
0000c0 91 8c 05 bc e2 3a 26 bd 22 52 46 3e 98 1c 12 be
       -0.008151189 -0.0405835 0.19367269 -0.1426872
0000d0 0e 29 af 3e 7c 4b 65 be 86 6b 07 be 02 86 97 3e
       0.3421101 -0.22392076 -0.1322461 0.29594427
0000e0 4c 47 89 bc 2c 8e 29 3e e0 a1 42 bc a8 49 07 be
       -0.01675763 0.1655814 -0.011879414 -0.13211691
0000f0 a8 56 f9 bc 32 6d 09 be 95 aa 1b be 40 e1 01 be
       -0.030436829 -0.13420561 -0.1520179 -0.12683582
000100 fa ee 21 be 8b 93 98 bd 00 51 81 3e 87 6f 5e 3e
       -0.15813819 -0.074500166 0.2525711 0.21722232
000110 c8 97 20 3e d4 db d5 3e 52 80 16 3e cd da b6 3d
       0.156829 0.41769278 0.14697388 0.08928452
000120 7e cf 0e 3e 3b 4b 9e be 97 f9 08 3e 05 ec 9b 3c
       0.1394634 -0.3091677 0.13376461 0.019033441
000130 be 57 f5 3d 65 61 53 be 11 53 d6 3d bc ad 94 bd
       0.11979626 -0.20642622 0.104650624 -0.072597
000140 1e c3 55 be 9d 66 25 3d 76 2a 2d be b7 c3 20 3e
       -0.20875213 0.040381063 -0.16910729 0.1569966
000150 21 60 b2 3c f8 9d 35 be f6 09 3d 3e 3c 59 53 be
       0.021774353 -0.17736042 0.18460831 -0.20639509
000160 fe ad c1 be f2 a9 29 3f 7b 64 c7 3c f0 2a 07 be
       -0.37828058 0.6627494 0.024339905 -0.13199973
000170 42 16 74 be f2 d7 8f ba ec 6b 19 bd c2 dc fb 3c
       -0.23836616 -0.0010974391 -0.037456438 0.030744914
000180 b6 41 10 3f 81 ca 84 bd c5 18 81 bd 55 cb be bc
       0.56350267 -0.06483937 -0.063035525 -0.023290316
000190 bb 88 46 3e a3 74 8d bd 68 c9 7f 3e 9a ab 2d bd
       0.19388096 -0.06907012 0.24979174 -0.04239998
0001a0 4c e5 c0 bd 26 7b 5e 3d f8 a9 32 be 6e 1b 70 bd
       -0.09418735 0.054316662 -0.1744765 -0.05861991
0001b0 4f b7 61 bd 43 e7 38 3e e0 83 89 3d ff a7 6b be
       -0.055106457 0.1805697 0.06714606 -0.23013304
0001c0 6b 76 db 3d e2 91 3b 3d c5 83 90 3c 3c 5b 20 be
       0.10715946 0.04579342 0.017640958 -0.15659803
0001d0 52 b0 41 3e b5 d8 23 bf c0 12 11 3e a5 95 e5 3d
       0.18914917 -0.64002544 0.14167309 0.11210183
0001e0 bf 47 25 3d 81 f5 d2 3d 33 e8 d5 3b b8 27 8f bd
       0.040351626 0.103007324 0.0065279244 -0.069899976
0001f0 87 d6 9b 3c 9f c1 80 be db 1b 39 bd d1 2b 29 bc
       0.019023193 -0.2514772 -0.04519258 -0.010325388
000200 55 9d dd bd d6 f0 f8 bd eb 1b 66 3d a9 bc 39 be
       -0.10821024 -0.12155311 0.05617897 -0.18138374
000210 d0 6d a2 bd 47 a8 b0 bd e5 ae 3a bd ce 38 30 3e
       -0.07931101 -0.08625846 -0.04557695 0.1720917
000220 c3 b3 e2 bd e9 98 52 be 51 6b 08 3d 93 47 43 be
       -0.11069443 -0.20566143 0.03330547 -0.19070272
000230 3d db 89 bb 41 c7 53 3d 01 ac 96 bc 0e 79 59 bd
       -0.0042070434 0.051703695 -0.018392565 -0.053093962
000240 69 f4 5a 3c ac 95 34 3d 2c fb c1 3d a9 83 0b 3e
       0.013363936 0.04408805 0.09471735 0.13624443
000250 cc cb d0 bd 7b 2d cb bd 82 6e 0c be 72 a8 fb bd
       -0.10195121 -0.09920784 -0.1371403 -0.12287988
000260 03 4b 05 3d 9c 66 d3 be 42 4c 2d 3c 30 29 f2 bc
       0.03254224 -0.41289222 0.010577263 -0.029560655
000270 73 06 dc bd 94 cb c8 3a 10 bb b6 3d 4b 9f 2f bb
       -0.107434176 0.001531946 0.08922398 -0.0026797827
000280 15 b9 08 3d 72 69 34 3e 98 9f 21 3d b8 d9 02 3d
       0.033379633 0.17618349 0.03945884 0.031945914
000290 54 f2 41 bb ea 26 19 3d de d8 9f bd 4d 37 1a 3c
       -0.0029593902 0.037390627 -0.07805036 0.009412599
0002a0 52 01 2b 3d d0 5a 37 be 74 94 3f bb dd 29 d7 3c
       0.041749306 -0.17905736 -0.0029232772 0.02626508
0002b0 5d 2b 2e 3d 89 c1 d0 bc 19 ef 22 3d 51 e3 71 3d
       0.042521823 -0.02548291 0.039778803 0.059054676
0002c0 88 c5 80 bd 07 2d fa 3d 90 90 0a be f5 88 2e 3d
       -0.06287676 0.122156195 -0.13531709 0.04261108
0002d0 6a e7 36 3c 92 19 36 3d 3e 9d 73 bd 9e 71 f2 bd
       0.011163572 0.04445798 -0.05947613 -0.11838077
0002e0 ab 04 9d bc f4 2b 0a 3e 3b c7 d0 3c 56 a1 f5 3c
       -0.019167265 0.1349333 0.025485625 0.029984158
0002f0 de 8d 38 3e 94 b0 ad bd 7e 26 5d bd 37 7c 88 bc
       0.18022868 -0.08480945 -0.053991787 -0.016660793
000300 d4 08 e9 bd 43 d1 1a be c1 a4 7a 3c 80 60 71 bc
       -0.11378637 -0.1511889 0.015298069 -0.01473248
000310 d6 66 fd bc 31 b6 4e 3c 16 dd 9c bd 39 8a ce bd
       -0.030932825 0.01261668 -0.07659356 -0.10084958
000320 84 f1 18 bd e4 18 02 3c 53 cb ef bd a1 2a d0 3e
       -0.037339702 0.007940505 -0.11708703 0.40657523
000330 42 c0 b9 bd 56 4f 7e 3d ad 6e b7 bc 52 d7 16 be
       -0.090698734 0.06208738 -0.022391642 -0.14730576
000340 7b 34 00 3d dc e9 f1 39 e4 88 3a 3e 7f 6a dc 3c
       0.03130005 0.0004614134 0.18216282 0.02690625
000350 50 eb 49 bd 9c 6f 7e 3d 33 3c 02 bc 76 ba 35 3e
       -0.049296677 0.062118158 -0.007948923 0.1774691
000360 31 19 10 be 29 aa 9f 3e dd fa 26 be cc a7 5d 3e
       -0.1407211 0.3118451 -0.16306634 0.2164604
000370 2c 75 b6 3d 85 68 89 bb 24 fe 15 bd 1d d4 a3 3c
       0.089090675 -0.004193368 -0.03661932 0.019998604
000380 0c 0b 90 bd 5a c1 cb bd 6a d5 38 3e 9c 8f 44 3d
       -0.07033357 -0.09948988 0.18050161 0.04798852
000390 52 6c de bb e8 82 84 3d e7 d4 17 3e ec 75 26 bd
       -0.006787815 0.06470281 0.1482731 -0.040639803
0003a0 fb 41 e2 3d d1 ce 6e 3e 44 c1 bf 3d 1a 66 fc 3d
       0.11047741 0.23321082 0.09363034 0.12324162
0003b0 28 12 c9 3e 0f 7d 79 3b a6 43 7e bd 65 10 d9 3d
       0.39271665 0.0038068925 -0.062076233 0.1059883
0003c0 52 9e 3e 3d 5e a0 8d 3d fd c9 35 3d 24 b0 ea 3d
       0.046537705 0.06915353 0.044382084 0.114593774
0003d0 ac f4 31 be 5b a3 b6 bd e1 32 20 bd df 4a 12 bd
       -0.17378491 -0.08917876 -0.039111022 -0.035715934
0003e0 e9 04 0b 3e 12 b2 0f bd fb 78 4a 3d 48 6e 66 3c
       0.13576092 -0.03508193 0.049431782 0.014064379
0003f0 1d 46 1d 3d d6 15 c1 3d a5 fc 45 3d e9 ba 9e bc
       0.038396943 0.09427993 0.048336644 -0.019376235

conv2.bias f4 [64]
000000 cb a1 50 bd a5 ff 6f bd 06 b4 a3 bd d5 dc 22 bd
       -0.050935548 -0.05859341 -0.07993321 -0.039761383
000010 37 bf 68 bd f5 e9 99 bd 30 4e 2e bd e4 f9 b4 bd
       -0.05682298 -0.07515327 -0.042555034 -0.08836725
000020 c0 29 3a bd fb 1f a5 bd b9 67 8e bd 54 df 48 bd
       -0.045449972 -0.080627404 -0.06953377 -0.049041107
000030 60 2d 0f bd e9 4b f0 bc 8c 6d 1e bd 4b e4 92 bd
       -0.034955382 -0.029333072 -0.03867869 -0.0717245
000040 b1 c2 84 bd 6b ab 3f bd 06 8a 0e be 5a d6 7e bd
       -0.06482447 -0.046794336 -0.1391984 -0.06221614
000050 9b e6 ac bd 16 91 62 bd 22 b4 35 bd 3d bb aa bd
       -0.08442422 -0.055314146 -0.04436124 -0.08336494
000060 15 e2 53 bd 49 82 d6 bd c1 ac 97 bd 09 89 2b bd
       -0.05172928 -0.10474069 -0.07405997 -0.041878734
000070 9e bf dd bd 1d 67 8e bb 59 de 86 bd ef df 8d bd
       -0.10827564 -0.004345788 -0.06585378 -0.069274776
000080 d5 bf 80 bd 4a b1 75 bd fe 9c 3b bd 47 73 9a bd
       -0.06286589 -0.05998353 -0.045804016 -0.07541519
000090 bb a4 0b bd 61 9b 84 bd c3 af 4b bd 89 e7 4f bd
       -0.034092646 -0.06474949 -0.049728166 -0.05075792
0000a0 c1 1b e5 bd 0f 48 0b bd e1 4d 6f bd a2 1f 4e bd
       -0.11186934 -0.034004267 -0.05842388 -0.050323136
0000b0 66 2f ab bd 7e f9 74 bd 33 15 da bd ef 23 db bc
       -0.0835865 -0.059808247 -0.10648575 -0.026750533
0000c0 d4 20 86 bd 51 51 4a bd c0 68 52 bd 54 26 7e bd
       -0.0654923 -0.049393956 -0.05136943 -0.06204827
0000d0 85 cb 87 bd 31 44 54 bd 49 e2 3e bd f2 e3 6d bd
       -0.06630615 -0.051822845 -0.04660252 -0.058078714
0000e0 8a 88 28 bd d4 81 35 bd a7 0b 7b bd 05 c4 e8 bc
       -0.04114584 -0.044313267 -0.06129041 -0.028413782
0000f0 3e 38 4b bd b0 c2 2f bd dd 76 7a bd 07 c5 57 bd
       -0.049614184 -0.042910278 -0.061148513 -0.052678134

conv3.g f4 [64, 1600]
000000 44 2b 3d 3a 5d d0 84 3a c3 32 2a 3b f2 32 a2 3a
       0.0007216225 0.0010132898 0.0025970198 0.0012374802
000010 05 ba eb b8 e1 e5 47 38 6e c7 81 b9 e6 b3 3b 39
       -0.00011240322 4.765939e-05 -0.00024753384 0.00017900727
000020 ed 95 b9 bd 46 49 8e 3c e6 e9 c1 36 80 78 6c 3a
       -0.09061799 0.017368924 5.7790776e-06 0.00090206414
000030 da ef 5d 39 86 68 9a ba ea 6b ab 3a 79 be ef ba
       0.00021165554 -0.0011780418 0.0013078426 -0.0018291018
000040 43 aa b7 3b 18 84 6b 3a 5c 26 f3 3d 8f a7 8c ba
       0.0056050136 0.0008984222 0.11872551 -0.0010731089
000050 90 d9 b6 ba 41 f1 c2 3c 7f eb 37 ba 03 67 a1 ba
       -0.0013950337 0.02379668 -0.00070159876 -0.0012314025
000060 fc 23 18 3c c3 03 fc b8 5f 92 0e be 4c c0 84 3a
       0.009285923 -0.00012016997 -0.13923024 0.001012811
000070 80 b9 c5 39 fc 43 27 ba 14 d3 17 3a 14 7e 86 bd
       0.00037712976 -0.0006380675 0.0005791646 -0.06567016
000080 f8 71 98 3d 99 bc 08 3d 98 24 b1 bc 5e 9e 59 ba
       0.07443613 0.033382986 -0.021623895 -0.00083014916
000090 1d 11 40 ba 3a ee 63 3a 1c b4 84 ba 5b f6 35 bd
       -0.0007326769 0.00086948613 -0.0010124478 -0.044424396
0000a0 08 bb 32 3d 6f 8a 0b bb 6d 1c 5c b9 2a 44 a0 39
       0.0436354 -0.002129223 -0.00020991424 0.00030568364
0000b0 5b 13 23 bd 8e 5b f9 bc a9 5a 88 ba 13 e2 af 3a
       -0.03981338 -0.030439164 -0.0010402995 0.0013418816
0000c0 8e 29 73 3a c4 cb 92 3d ad 7f 58 ba c7 ce 8c 3b
       0.00092759065 0.071677715 -0.0008258771 0.0042971107
0000d0 0a d4 ee 38 a7 7b ec ba 4c 78 d8 3c 3c 7d d1 3d
       0.0001138822 -0.0018042222 0.02642455 0.10228965
0000e0 51 e5 08 3e f4 4a b9 3d d1 4c 42 39 7c 34 76 ba
       0.13368727 0.09047499 0.00018529898 -0.0009391976
0000f0 73 c7 c4 bd 82 b0 8f ba ef a3 75 39 87 86 8a 3a
       -0.096083544 -0.0010962638 0.00023426091 0.0010568657
000100 0b 6e 3d 3a 09 f7 84 3a 1b 71 2a 3b 85 54 a2 3a
       0.00072261755 0.0010144423 0.0026007358 0.0012384808
000110 64 ea ea b8 96 97 4a 38 04 a6 82 b9 ac 4c 3c 39
       -0.00011201648 4.830173e-05 -0.00024919224 0.0001795764
000120 89 a2 ba bd b0 03 8e 3c 03 ec a8 36 7b c1 6c 3a
       -0.09113032 0.017335743 5.0342655e-06 0.00090315164
000130 1f cc 5e 39 ff 6e 9a ba fb 87 ab 3a 40 2c f0 ba
       0.00021247611 -0.0011782347 0.001308679 -0.0018323734
000140 91 85 b0 3b 38 99 66 3a c3 71 f3 3d c0 c7 8c ba
       0.005387016 0.0008796635 0.11886933 -0.0010740682
000150 80 ee b6 ba 60 e1 c0 3c 46 41 38 ba 9a 90 a1 ba
       -0.0013956577 0.023544967 -0.00070287695 -0.001232642
000160 46 68 17 3c ee 30 fd b8 8b e2 0d be 74 bc 84 3a
       0.009241169 -0.00012073094 -0.1385595 0.0010126964
000170 9f 1f c6 39 a2 4b 27 ba d9 92 17 3a 01 92 86 bd
       0.00037789062 -0.00063818146 0.0005782075 -0.06570817
000180 e2 73 98 3d 75 25 08 3d 90 cf b1 bc 9c d0 59 ba
       0.07443978 0.033238847 -0.021705419 -0.0008308978
000190 c6 39 40 ba 20 57 64 3a d7 e7 84 ba 50 a6 36 bd
       -0.00073328277 0.00087104924 -0.0010139894 -0.0445922
0001a0 8a 18 34 3d c9 e0 0b bb 15 27 5d b9 33 40 c1 39
       0.043968715 -0.00213437 -0.00021090762 0.0003685966
0001b0 61 de 22 bd f1 ae f8 bc 50 80 88 ba 78 f1 af 3a
       -0.03976286 -0.030356856 -0.0010414217 0.0013423404
0001c0 94 15 73 3a 96 15 93 3d 13 5a 58 ba 6f fc 85 3b
       0.000927293 0.071818516 -0.0008253168 0.0040889303
0001d0 3f aa f0 38 96 73 ec ba 08 f1 d8 3c 83 ff d1 3d
       0.000114758026 -0.0018039818 0.02648212 0.10253813
0001e0 7e da 08 3e a0 58 b9 3d 78 69 42 39 21 17 76 ba
       0.13364598 0.09050107 0.00018540572 -0.0009387602
0001f0 78 69 c5 bd c0 c3 8f ba 5c 32 75 39 e1 8c 8a 3a
       -0.09639257 -0.0010968372 0.00023383781 0.001057055
000200 6d da 3c 3a d4 ac 84 3a ab fc 29 3b 59 19 a2 3a
       0.0007204179 0.0010122308 0.0025937955 0.0012367173
000210 c2 49 eb b8 65 f3 43 38 04 60 81 b9 a9 36 3b 39
       -0.00011219412 4.67183e-05 -0.00024676335 0.00017854072
000220 5c de b9 bd e5 61 8e 3c 6d 4b d1 36 d4 2f 6c 3a
       -0.09075615 0.017380664 6.237466e-06 0.00090098125
000230 0d a3 5c 39 02 65 9a ba 29 54 ab 3a 36 87 ef ba
       0.00021041576 -0.001177937 0.0013071346 -0.0018274549
000240 e5 ff b6 3b 64 91 6c 3a 30 6f f3 3d f2 8b 8c ba
       0.005584704 0.00090243504 0.11886442 -0.0010722859
000250 cd b5 b6 ba e5 33 c3 3c f5 7a 37 ba ca 3c a1 ba
       -0.0013939679 0.023828456 -0.0006999218 -0.0012301442
000260 03 29 18 3c 30 aa fa b8 72 0f 0f be 5a b9 84 3a
       0.009287122 -0.00011952629 -0.13970736 0.001012604
000270 15 4f c5 39 0f 2c 27 ba dd f1 17 3a 67 6b 86 bd
       0.0003763369 -0.00063771097 0.00057962333 -0.06563454
000280 a2 82 98 3d 79 db 08 3d e2 6b b1 bc 96 77 59 ba
       0.07446791 0.03341243 -0.021657888 -0.0008295713
000290 24 dc 3f ba 3e 94 63 3a 52 82 84 ba 8b 20 36 bd
       -0.0007318875 0.00086814526 -0.0010109639 -0.04446463
0002a0 b6 f4 32 3d 54 e0 0b bb 77 bb 5c b9 41 a9 95 39
       0.043690406 -0.0021343427 -0.00021050671 0.000285456
0002b0 3c 8a 23 bd bd af f9 bc 5c 30 88 ba d4 c7 af 3a
       -0.039926752 -0.030479306 -0.0010390389 0.0013410994
0002c0 87 45 73 3a 6f f2 92 3d 41 78 58 ba f8 12 8e 3b
       0.0009280075 0.07175147 -0.00082576653 0.0043357573
0002d0 1c 13 ed 38 7e 66 ec ba 20 84 d8 3c 53 b9 d1 3d
       0.000113046 -0.0018035916 0.02643019 0.10240426
0002e0 17 ff 08 3e 15 75 b9 3d b6 a7 42 39 e2 08 76 ba
       0.13378559 0.09055535 0.00018563759 -0.0009385479
0002f0 e0 cc c4 bd b8 9b 8f ba 8d 1f 76 39 84 6e 8a 3a
       -0.09609389 -0.0010956442 0.00023472142 0.0010561501
000300 0f 0a 3d 3a 0c c1 84 3a 2a 1b 2a 3b 47 27 a2 3a
       0.00072112767 0.0010128333 0.0025956132 0.0012371325
000310 53 a5 eb b8 7b 54 46 38 c4 91 81 b9 c4 7b 3b 39
       -0.00011236467 4.7285557e-05 -0.000247134 0.00017879816
000320 90 9a b9 bd 31 57 8e 3c 39 46 c9 36 a3 59 6c 3a
       -0.090626836 0.01737556 5.998442e-06 0.00090160425
000330 78 6a 5d 39 b2 66 9a ba 7c 61 ab 3a ab a2 ef ba
       0.00021115865 -0.0011779873 0.0013075317 -0.0018282732
000340 d3 fe b7 3b dd 3d 6c 3a 31 3a f3 3d 6e 9b 8c ba
       0.005615094 0.0009011904 0.118763335 -0.0010727474
000350 6e cb b6 ba 77 31 c3 3c b6 bd 37 ba 04 55 a1 ba
       -0.0013946125 0.023827298 -0.0007009165 -0.0012308662
000360 dd 33 18 3c ea 71 fb b8 39 cc 0e be 1c be 84 3a
       0.009289709 -0.00011989831 -0.13945092 0.0010127458
000370 1f 8d c5 39 5f 3b 27 ba 0a e3 17 3a 2a 76 86 bd
       0.00037679911 -0.00063793914 0.00057940243 -0.06565507
000380 93 77 98 3d 06 d2 08 3d 98 2f b1 bc e0 8c 59 ba
       0.07444682 0.03340342 -0.02162914 -0.0008298885
000390 90 fb 3f ba 09 c7 63 3a e3 9e 84 ba b7 f6 35 bd
       -0.00073235575 0.00086890213 -0.0010118153 -0.04442474
0003a0 75 b4 32 3d f2 a0 0b bb 9c 3e 5c b9 f3 02 9a 39
       0.04362913 -0.0021305648 -0.00021004159 0.00029375366
0003b0 ef 40 23 bd 17 86 f9 bc 11 49 88 ba ad d7 af 3a
       -0.039856847 -0.030459447 -0.0010397752 0.0013415717
0003c0 df 34 73 3a 64 d3 92 3d e9 7f 58 ba c2 c7 8d 3b
       0.0009277593 0.07169226 -0.0008258806 0.0043267915
0003d0 d7 16 ee 38 d4 74 ec ba d8 72 d8 3c f5 86 d1 3d
       0.000113529786 -0.0018040189 0.02642195 0.10230819
0003e0 78 ef 08 3e 87 58 b9 3d d1 69 42 39 86 27 76 ba
       0.133726 0.090500884 0.00018540701 -0.0009390045
0003f0 55 bc c4 bd 9c a7 8f ba ea d7 75 39 c0 7d 8a 3a
       -0.09606234 -0.0010959986 0.00023445455 0.0010566041

conv3.mu f4 [25, 2]
000000 70 e6 d9 3e ea 5c ea 3e 3f 42 da 3e d5 a0 e8 3e
       0.42558622 0.45774013 0.42628667 0.45435205
000010 ac 97 da 3e c9 b1 ea 3e d7 1c da 3e 0e 9e ea 3e
       0.4269384 0.45838764 0.42600128 0.4582371
000020 b9 fe d9 3e 7e c8 ed 3e e3 ba 00 80 c6 a4 00 00
       0.4257715 0.46442026 -6.7042e-41 5.911e-41
000030 51 dc d9 3e ae a4 e6 3e 65 9c da 3e 51 a2 ea 3e
       0.425509 0.45047516 0.42697445 0.45826963
000040 86 94 d9 3e d8 29 e5 3e 13 91 da 3e 18 9f ea 3e
       0.42496127 0.44758487 0.42688808 0.45824504
000050 30 c4 d9 3e cd 24 e6 3e 6e 70 da 3e f2 cc ea 3e
       0.42532492 0.44949952 0.42663902 0.45859486
000060 9f 7a da 3e e6 ac e9 3e 26 77 da 3e 02 8d ea 3e
       0.42671677 0.45639724 0.42669028 0.45810705
000070 ce 83 da 3e 39 ed ea 3e 3f 6a da 3e 61 63 e9 3e
       0.42678684 0.45884112 0.42659184 0.45583633
000080 8f 9f d9 3e ad 65 e5 3e ff 16 da 3e 5b c7 e7 3e
       0.42504546 0.44804135 0.4259567 0.45269284
000090 48 47 da 3e 55 c7 ea 3e 74 c9 00 80 1f e4 00 00
       0.42632508 0.45855203 -7.2268e-41 8.1834e-41
0000a0 c1 68 da 3e a0 5a e9 3e 33 5f da 3e d4 2a e9 3e
       0.42658046 0.45576954 0.42650756 0.45540488
0000b0 d9 fe d9 3e 5b c9 ed 3e 1e 45 da 3e b5 be ea 3e
       0.42577246 0.46442685 0.42630857 0.45848623
0000c0 7d 0e da 3e 4b 87 ea 3e
       0.4258918 0.45806345

conv3.sigma f4 [25, 2]
000000 af a1 5b 3f 5b b5 61 3f 8b 8a 5b bf cb ac 61 bf
       0.85793585 0.8816735 -0.85758275 -0.88154286
000010 a2 bf 5b 3f bc d4 61 3f ad ad 5b 3f 62 c0 61 3f
       0.85839283 0.8821523 0.85811883 0.8818418
000020 47 bf 5b bf b2 af 61 3f 3f ca 00 80 7b 0d 00 80
       -0.8583874 0.88158715 -7.2552e-41 -4.836e-42
000030 4e 4b 5b bf 49 77 61 3f 56 bf 5b 3f 08 d5 61 bf
       -0.8566178 0.8807264 0.8583883 -0.88215685
000040 94 19 5b bf fc 4a 61 3f d4 bd 5b 3f 60 d3 61 3f
       -0.85585904 0.8800504 0.8583653 0.8821316
000050 df 3a 5b bf e2 68 61 3f 0b bc 5b bf 2f cf 61 bf
       -0.85636705 0.88050663 -0.85833806 -0.8820676
000060 03 a9 5b bf 4d c5 61 3f 42 b9 5b 3f c7 ce 61 3f
       -0.85804766 0.8819168 0.85829556 0.8820614
000070 9a bf 5b 3f 31 d2 61 bf ce a0 5b bf d4 be 61 3f
       0.85839236 -0.8821135 -0.85792243 0.88181806
000080 b3 21 5b 3f 5b 52 61 3f 2a 70 5b bf 1a 97 61 bf
       0.85598296 0.8801629 -0.85718024 -0.8812119
000090 02 b6 5b 3f 26 c8 61 bf e9 11 00 80 44 06 00 00
       0.85824597 -0.8819603 -6.425e-42 2.248e-42
0000a0 d7 9f 5b 3f 19 be 61 bf 88 9a 5b 3f 1b ba 61 bf
       0.8579077 -0.8818069 0.8578267 -0.881746
0000b0 4f bf 5b 3f c0 af 61 3f 97 b5 5b bf a8 c7 61 bf
       0.8583879 0.881588 -0.8582396 -0.88195276
0000c0 86 aa 5b bf 9b bd 61 3f
       -0.85807073 0.8817994

conv3.root f4 [64, 64]
000000 bc b9 3f 3a 50 db 88 3a 91 5e 10 3b c9 c8 b1 3a
       0.00073137484 0.0010441337 0.0022029022 0.0013563867
000010 8e 06 14 b9 8c b2 b0 38 af 67 91 b9 ae 22 fd 38
       -0.00014116822 8.425591e-05 -0.00027733805 0.0001207044
000020 5a dc dc bd 7a 73 cb 3c 19 44 29 39 eb ea 4f 3a
       -0.10784216 0.024835337 0.00016142464 0.0007931429
000030 d7 5e 5d 39 0a 60 8d ba 44 be a6 3a 52 4f d1 ba
       0.00021111533 -0.0010786068 0.0012721498 -0.0015969074
000040 fb db b0 3b 34 86 50 3c 45 13 09 3e 51 07 84 ba
       0.0053973175 0.012727309 0.13386257 -0.0010072981
000050 64 20 a1 ba 19 b4 09 3d 15 09 00 ba 71 3e 98 ba
       -0.0012292978 0.03361902 -0.0004884166 -0.0011615289
000060 1f 1f 81 3c 3e b7 9d b8 0c 81 37 be 25 76 90 3a
       0.01576191 -7.520475e-05 -0.17920321 0.0011021538
000070 95 86 97 39 34 86 0f ba 23 64 27 3a c3 6f 7a bd
       0.00028901236 -0.0005475015 0.0006385466 -0.06114174
000080 d1 c7 a1 3d 17 89 a5 3d d6 17 2a bd 41 4c 87 ba
       0.0789944 0.080827884 -0.041526638 -0.0010322408
000090 c7 9b 30 ba 96 4f 5c 3a c6 4f 75 ba 67 b9 73 bd
       -0.000673708 0.0008404193 -0.00093578955 -0.059502985
0000a0 28 c7 4c 3d 1b 3c 1e bb 38 ce c7 b8 ce 88 14 bb
       0.049994618 -0.0024144712 -9.527471e-05 -0.002266455
0000b0 b5 01 70 bd d7 27 24 bd 8f fd 54 ba 63 8d a3 3a
       -0.058595378 -0.040077057 -0.00081249414 0.001247805
0000c0 ee 59 8a 3a 7b a5 a1 3d 31 fc 29 ba 77 34 d9 3c
       0.0010555366 0.07892891 -0.0006484418 0.026514275
0000d0 37 06 cd b5 e2 b4 e9 ba 30 3b b1 3c a7 14 f7 3d
       -1.5275499e-06 -0.0017830397 0.021634668 0.12064486
0000e0 80 04 1b 3e d5 ba e5 3d 5f 1f c7 39 a2 60 71 ba
       0.15138435 0.11217276 0.0003797961 -0.000920782
0000f0 06 51 d1 bd 43 4f 98 ba b4 2b ec 39 9e bb 78 3a
       -0.10220532 -0.0011620302 0.0004504599 0.00094884064
000100 a8 c8 2a 39 68 c2 a9 3a a5 97 25 3b 26 b6 d7 3a
       0.00016287214 0.0012951614 0.002526739 0.0016457483
000110 13 5c 60 3a 83 3c 85 39 89 9e b7 b8 93 76 af 39
       0.0008558642 0.00025412822 -8.7556495e-05 0.00033466946
000120 8f 2d 8d bd f5 d5 c9 bc 71 38 4b 39 3a 42 e1 b9
       -0.06893455 -0.024638155 0.00019380615 -0.00042964687
000130 65 16 d0 3a 87 6f 6c ba 46 f6 35 39 d1 cb 1a bb
       0.0015875815 -0.00090193044 0.00017353249 -0.002362002
000140 ce 30 0e 3d 76 b3 ae 3d 3a 96 69 bd 5e 00 b3 38
       0.034714513 0.08530323 -0.057028033 8.5354535e-05
000150 fa e4 82 ba 2c 6e c5 bd 95 9b 7b ba 63 98 84 ba
       -0.0009986453 -0.09640154 -0.00095980737 -0.0010116216
000160 53 ec 22 bd 71 31 54 ba 66 6b 12 3e 00 b2 a2 3a
       -0.039776158 -0.00080945255 0.14298782 0.0012412667
000170 06 f5 26 ba c9 7f d7 ba 33 fe fa b8 c7 ca 53 bd
       -0.0006368909 -0.0016441281 -0.00011968277 -0.051707055
000180 69 68 01 3c e9 08 57 bd 34 59 08 be 1d 68 18 b9
       0.0078984285 -0.05249873 -0.13315278 -0.00014534635
000190 e8 6f 33 b9 e7 ff 9a 3a 03 5d db 35 3f 8b a9 3d
       -0.00017112459 0.0011825532 1.6343841e-06 0.08278512
0001a0 32 db 99 3b e4 52 a3 bb e5 36 d0 3a bf ae e1 bd
       0.0046953196 -0.0049842466 0.00158855 -0.11019658
0001b0 30 9d 36 3d 86 69 1c 3e 1e 62 d7 ba 60 29 f1 3a
       0.0445835 0.15274629 -0.001643244 0.0018399172
0001c0 c7 dd 28 38 c9 37 22 bc 8c 23 ea ba f6 74 b2 bd
       4.0260868e-05 -0.0099009955 -0.0017863377 -0.08713715
0001d0 3c 7f 9e 3a 33 1d e5 ba d2 c9 da ba 51 e2 d2 3c
       0.0012092362 -0.0017480016 -0.0016692227 0.025742682
0001e0 45 1e 57 be 7a ba c9 bd 8e e6 d5 b9 26 ce 2c ba
       -0.2100764 -0.09850021 -0.00040798303 -0.0006591998
0001f0 f3 cb 01 3e fd 05 bd 3a 61 e2 bd ba 6b 2b 12 39
       0.12675457 0.001442134 -0.0014487022 0.0001393982
000200 28 a4 75 3a c9 3b 1b b8 ac 7a 20 ba e3 1b 41 ba
       0.00093704695 -3.701056e-05 -0.0006121795 -0.0007366521
000210 55 cc 09 b7 26 f0 80 3a e9 79 df ba a0 48 4d ba
       -8.213411e-06 0.0009837195 -0.0017049882 -0.00078309514
000220 cd 36 8f bc 67 a5 7a bc 76 a1 f4 ba 38 e7 f0 b8
       -0.017482186 -0.015298224 -0.0018663842 -0.0001148716
000230 14 c3 c7 b7 5e 28 0d 3a cd d1 4b 3a 01 74 81 37
       -2.3813489e-05 0.00053847383 0.0007775098 1.5432017e-05
000240 a6 e6 cf 3b b9 f0 00 bb 28 75 20 bc c6 7e c3 b9
       0.006344634 -0.0019674732 -0.009793557 -0.00037287752
000250 8d f7 07 3a 9c c3 4a bc 52 5c 80 ba f6 7e 8b ba
       0.0005186729 -0.0123757385 -0.0009793139 -0.0010642696
000260 c5 60 36 bc 22 b2 86 ba b8 48 52 3e 93 d6 23 3a
       -0.01113147 -0.0010276476 0.20535553 0.00062499306
000270 58 8b 77 b9 d0 77 f5 39 64 04 ac ba 1c 62 5f 3d
       -0.00023607665 0.0004681931 -0.0013123867 0.054536924
000280 40 ce a9 3c 15 3a 57 3d 6d f5 1e bd 37 41 3a 3b
       0.02072823 0.052545626 -0.038808275 0.0028420219
000290 34 68 a3 ba bd 78 cd 39 17 f2 ad b9 18 2c 06 3d
       -0.0012466968 0.00039190604 -0.00033177502 0.032756895
0002a0 8b 67 c1 bd 42 ba bc 3a c1 11 31 ba ff 6f 1d 3c
       -0.094435774 0.0014398771 -0.00067546597 0.0096092215
0002b0 ef 9d a8 bc 23 5a 44 3d d9 fd 54 ba 7e 83 05 ba
       -0.020583121 0.047937524 -0.00081249845 -0.0005093141
0002c0 d6 7a e2 ba ca b4 ea bc 6b bf 49 ba 90 9b 3f bd
       -0.001727904 -0.02865066 -0.0007696065 -0.046779215
0002d0 e9 d9 d2 3a b1 99 df 3a 7e fb 5a bd 9a f1 97 bc
       0.0016086671 0.0017059353 -0.053462498 -0.018547822
0002e0 66 5e 14 bd df ec ed bc 20 4f b7 b9 95 0c da 3a
       -0.036222838 -0.029043613 -0.00034963433 0.001663583
0002f0 af a3 11 bb 29 12 0f 3b c3 6c 50 bb c5 35 a4 b9
       -0.0022222807 0.0021830893 -0.0031803108 -0.0003132058
000300 56 97 89 b9 2f 0c 88 b9 75 3b 31 3b a1 00 82 38
       -0.0002624343 -0.0002594902 0.0027043496 6.199e-05
000310 e5 e0 62 39 80 66 15 ba 5d 48 2e ba 4c 6a b1 b9
       0.0002163682 -0.00056991726 -0.0006648356 -0.00033839268
000320 e9 1a 09 bd 58 34 85 3d 95 5b 62 ba 9a b3 64 36
       -0.03347293 0.065041244 -0.00086348626 3.407919e-06
000330 d3 b7 c4 39 04 c9 12 ba 84 95 08 3a 95 b6 eb ba
       0.00037520993 -0.00055994117 0.0005210268 -0.0017983491
000340 23 80 74 bd d0 ab 98 3d 3d 80 2c 3d 6e 4d 2b ba
       -0.059692513 0.07454646 0.042114485 -0.000653467
000350 2b b4 36 39 71 6f 98 bd 3b bb 37 ba e0 9a ce b9
       0.0001742399 -0.07443131 -0.00070087955 -0.00039406773
000360 d5 27 6f 3d 48 39 6d 39 71 6b 22 be 4d d4 ef 35
       0.058387596 0.0002262342 -0.15861298 1.7868675e-06
000370 d2 2d 75 ba 52 95 b6 b9 05 5c a5 b9 20 b4 9b 3c
       -0.0009352836 -0.00034824997 -0.00031539812 0.019006789
000380 98 98 af bd 88 48 bc 3d 65 e7 72 be a1 7b 0d 39
       -0.08574027 0.09193522 -0.23721083 0.00013492863
000390 2a ed 61 ba a4 d9 05 b9 fb 0b 74 39 17 cf 28 bd
       -0.0008618409 -0.00012764946 0.00023274116 -0.04121312
0003a0 cb 51 4a 3e 3f fd 18 bc a0 45 40 ba 7e 43 ac bb
       0.19757764 -0.009337722 -0.00073345937 -0.005257069
0003b0 58 68 ac 3c b0 13 ca bd d5 26 7f b9 a9 78 e6 39
       0.021045849 -0.09867036 -0.00024333161 0.00043958917
0003c0 6a 61 d3 b9 e8 6f c3 3d 0b 48 b5 3a 98 fe c4 3d
       -0.00040317635 0.09542829 0.0013830675 0.096188724
0003d0 2d 5c 08 3a ab 58 aa 3a 97 c7 83 bd 05 f6 19 3d
       0.00052017235 0.0012996396 -0.06434553 0.037588138
0003e0 ea 3f cb 3b 8b 47 8c 3d 3a 7f bf 39 cb f3 b3 3a
       0.0062026875 0.06849583 0.0003652515 0.0013729272
0003f0 a2 27 6f bd 40 78 b9 b7 59 08 a0 b9 02 05 a7 3a
       -0.058387406 -2.2109714e-05 -0.00030523798 0.0012742581

conv3.bias f4 [64]
000000 57 b2 c4 bb fb 57 2c bb fb 10 1e bc 61 5e 53 bb
       -0.006002705 -0.0026297558 -0.009647603 -0.00322523
000010 8a 9a 73 37 89 90 21 bb aa ad 44 3b 0a 67 23 ba
       1.451991e-05 -0.00246528 0.0030010738 -0.00062333106
000020 57 c2 03 bd 1b 32 c8 bd a3 8e 8c 3a 10 de 8b bb
       -0.03216776 -0.09775182 0.0010723661 -0.0042684153
000030 d2 ad 07 bb 8d c4 02 3b e5 50 77 bb 35 6a e8 3b
       -0.002070297 0.001995358 -0.0037737426 0.007092739
000040 48 3b 50 3d d7 11 b9 bc 6b d7 7e bd 1d 76 2d 3b
       0.050837785 -0.022591515 -0.062217157 0.0026468106
000050 92 d2 81 3b 68 ab 5d bd 98 45 63 3b dc a9 8d 3b
       0.0039618695 -0.054118544 0.0034678932 0.0043232273
000060 06 e9 d7 bd e4 e0 72 3a 3c 7b f0 bc c5 96 08 bb
       -0.105424926 0.00092650787 -0.029355638 -0.0020841819
000070 6b 95 4d bb 13 44 cd 39 ac 26 45 3a af bd 7d be
       -0.0031369578 0.00039151366 0.0007520716 -0.2477939
000080 39 ba c2 bc e1 0b 4b be 47 b8 87 bd d5 ea f4 3a
       -0.023770439 -0.1982875 -0.06626945 0.0018685708
000090 6d b7 0f 3b 1c 40 4a bb a6 b3 94 3b 7e 7f 29 be
       0.0021929399 -0.0030860966 0.0045380173 -0.1655254
0000a0 47 ae 5c be 93 b2 38 3d c6 63 f1 39 8f e4 81 bc
       -0.21550857 0.045092177 0.0004604144 -0.015856056
0000b0 3b ea 6f 3d 80 df ec bc 02 23 79 3b ca b6 8e bb
       0.05857299 -0.028915167 0.003801525 -0.0043552862
0000c0 9f bb fa 39 48 71 ed bd 5e 08 3a 39 0a 31 ae bc
       0.00047823504 -0.11593872 0.0001774146 -0.021263618
0000d0 12 bd b1 ba c0 c8 18 3b 1a c3 51 be 4c f8 51 bd
       -0.0013560376 0.0023313016 -0.20484582 -0.051262185
0000e0 39 4c bf 3d 75 fc 27 3d 4c af ce b9 76 d6 71 3a
       0.0934071 0.041012246 -0.00039421988 0.00092253776
0000f0 3a bd c7 bc ea a8 31 3b 9a 68 cb 39 94 ca 14 bb
       -0.024382222 0.0027108737 0.00038797111 -0.0022703754
